res/mnist/aleatoric_mdl.pth (torch, 181380 bytes, 6 tensors)

conv1.0.weight f4 [16, 1, 5, 5]
0	0xbdc13fed	-0.09436021
1	0xbe507752	-0.20358017
2	0xbce8214e	-0.028336193
3	0x3d7856da	0.060629703
4	0x3ded759f	0.115947
5	0xbe431d7c	-0.19054216
6	0x3d116110	0.035492957
7	0xbd3a2a90	-0.045450747
8	0x3de7f4f6	0.113260195
9	0x3e06636d	0.13123865
10	0xbe4b01bc	-0.1982488
11	0xbd8d89c2	-0.06911041
12	0xbc080df0	-0.008304104
13	0x3e408ffe	0.18804929
14	0xbcdbcbf1	-0.026830645
15	0xbdaa3a61	-0.08311916
16	0x3d9930ea	0.07480033
17	0x3c7fc708	0.015611418
18	0xbd7b4e73	-0.061354112
19	0x3e165ab2	0.14683035
20	0xbde2f271	-0.11081398
21	0xbb9dabe5	-0.004811751
22	0xbdab572f	-0.08366238
23	0x3e42f530	0.19038844
24	0xbd921d15	-0.07134453
25	0xbdb0f1e2	-0.086398855
26	0xbe2c6891	-0.16836764
27	0xbe4cd66f	-0.20003675
28	0xbe8efb5c	-0.27926147
29	0xbd4862ba	-0.048922278
30	0xbe3261f8	-0.17420185
31	0xbe074bda	-0.13212529
32	0xbe228cf8	-0.15874088
33	0x3df865ae	0.12128769
34	0x3d69900b	0.057022136
35	0xbe2b2d9d	-0.16716619
36	0xbe1f67ba	-0.15566912
37	0x3da736ab	0.08164724
38	0xbd81ea67	-0.06343537
39	0x3d1a6ee9	0.03770343
40	0xbe2317f1	-0.15927102
41	0xbdd554cc	-0.10416564
42	0x3e1a24cd	0.15053101
43	0x3e01f002	0.12689212
44	0x3c233f58	0.009963833
45	0x3d7f15ac	0.062276527
46	0xbcf2ccfd	-0.029638762
47	0x3de8ed0f	0.1137334
48	0x3cf14259	0.029450582
49	0x3e1b707e	0.15179631
50	0x3db0a75b	0.086256705
51	0xbdf33e79	-0.1187715
52	0xbd884aed	-0.06654916
53	0xbe273341	-0.16328146
54	0x3d725c36	0.05916997
55	0x3db824ce	0.08991395
56	0xbbf7821d	-0.0075533525
57	0x3c9cb331	0.019128414
58	0xbe2ab302	-0.16669849
59	0xbe4c7249	-0.19965471
60	0x3ddbbc01	0.10729218
61	0x3e08e78c	0.13369578
62	0x3e1e026e	0.15430614
63	0xbd3da117	-0.046296205
64	0xbd0e5ec4	-0.034758344
65	0xbd759e46	-0.059965394
66	0x3e16b4e7	0.14717446
67	0x3e786e5c	0.24260849
68	0x3e952329	0.29128388
69	0xbdb2cbb7	-0.08730262
70	0xbe14398f	-0.14475082
71	0xbdf7b1f4	-0.12094489
72	0xbdfd1e9c	-0.12359354
73	0x3d59c5e2	0.05316723
74	0x3e10621e	0.14099929
75	0x3cb4afc1	0.022056462
76	0xba57e3d5	-0.0008235549
77	0x3d226ab6	0.03965255
78	0x3ce8564b	0.02836146
79	0x3d97d475	0.0741357
80	0xbc29dff7	-0.010368339
81	0xbdd6a97b	-0.104815446
82	0xbcf2292f	-0.029560653
83	0xbd28eed1	-0.041243378
84	0xbe306bbc	-0.17228597
85	0x3d7e158d	0.06203227
86	0xbdbfafcd	-0.09359703
87	0xbe15a2db	-0.14612906
88	0xbe81f796	-0.25384206
89	0xbe09596a	-0.13413015
90	0x3e2675e6	0.16255912
91	0x3dac36c2	0.08408882
92	0xbdba9f94	-0.09112468
93	0x3d288b43	0.041148435
94	0x3cd46f87	0.025932087
95	0xbd26d95a	-0.040734626
96	0x3e83a760	0.25713634
97	0x3e0d68ae	0.13809463
98	0x3e539ff0	0.2066648
99	0x3e2e2fda	0.17010441
100	0x3d79ac06	0.06095507
101	0xbb989ee2	-0.004657612
102	0xbd89ec1f	-0.0673449
103	0x3d8e0da0	0.069361925
104	0xbd868515	-0.06568352
105	0xbdbe81de	-0.09302114
106	0xbd046811	-0.032325808
107	0x3dc4063b	0.09571501
108	0x3dd2a97e	0.10286234
109	0xbdb3d758	-0.08781308
110	0xbe04b745	-0.12960537
111	0xbd4aa6a0	-0.049475312
112	0x3cf77cde	0.030210909
113	0x3c391dd9	0.01129862
114	0xbdfb3898	-0.12266654
115	0xbdf29cf7	-0.11846345
116	0x3b92ec3d	0.004483728
117	0x3e4d3476	0.20039544
118	0x3e4b452d	0.19850607
119	0x3e7275da	0.2367777
120	0xbc639ef4	-0.013892878
121	0x3e24cf0e	0.1609461
122	0x3b7ec66e	0.0038875598
123	0x3d137dd0	0.036008656
124	0xbe632c35	-0.22184832
125	0xbdb2013a	-0.0869164
126	0xbe58394b	-0.21115606
127	0x3d67f482	0.056629665
128	0x3dc808e4	0.09767321
129	0x3e2d12c9	0.16901697
130	0x3e8193e1	0.25308135
131	0x3e52830f	0.20557807
132	0x3d272fd9	0.040817115
133	0x3e2dc70d	0.16970463
134	0x3d926acd	0.07149277
135	0xbd2f40e7	-0.042786505
136	0xbd421a62	-0.04738844
137	0xbdfd91cc	-0.12381324
138	0x3d12d80f	0.03585058
139	0x3ca66d92	0.02031592
140	0xbe1e4ad3	-0.1545823
141	0xbdb8d7bf	-0.09025525
142	0x3d6178eb	0.055046957
143	0xbda60882	-0.081070915
144	0x3e2cf241	0.16889288
145	0xbea5bb87	-0.32369635
146	0xbe054651	-0.13015105
147	0xbe2d2ace	-0.1691086
148	0xbdce8996	-0.10084836
149	0x3dc2974b	0.09501513
150	0x3e157934	0.14597017
151	0x3bc253a4	0.005930381
152	0x3cbb28de	0.022846635
153	0xbd0a1f85	-0.033721466
154	0x3daa4cf1	0.08315457
155	0xbe04d177	-0.1297053
156	0xbe54daf1	-0.20786645
157	0xbd1dab23	-0.038493287
158	0x3d953add	0.07286618
159	0x3d611e7e	0.05496072
160	0xbe680b4f	-0.22660564
161	0x3d0f9429	0.035053406
162	0x3e60c73b	0.21951
163	0xbd1ba240	-0.03799653
164	0x3dd33bdd	0.103141524
165	0xbe13611c	-0.14392513
166	0x3d318664	0.043341056
167	0xbc2a5a0e	-0.010397447
168	0x3e5c7e1c	0.21532482
169	0xbc3bda14	-0.011465568
170	0xbd86dff4	-0.065856844
171	0x3e081534	0.13289338
172	0x3d964df2	0.07339086
173	0x3dd3c659	0.10340566
174	0xbe8758fb	-0.26435074
175	0x3d420bb2	0.047374435
176	0x3d83534c	0.06412372
177	0xbdc27670	-0.094952464
178	0xbe11f875	-0.14254935
179	0xbe3b9fb8	-0.18322647
180	0xbde16572	-0.11005677
181	0x3eaa4321	0.3325434
182	0x3e605660	0.2190795
183	0xbde6c5a4	-0.11268166
184	0xbe7e5db9	-0.2484044
185	0xbe6a8bbe	-0.2290487
186	0x3b09cc74	0.0021026405
187	0x3e928f8f	0.28625152
188	0x3e463fbf	0.19360255
189	0xbd73630a	-0.059420623
190	0xbeb4e054	-0.353274
191	0xbdd7a902	-0.105302826
192	0x3e124f1d	0.14287992
193	0x3e0d9b0f	0.13828681
194	0xbd1e9053	-0.038711857
195	0xbe702826	-0.23452815
196	0xbe1027a5	-0.14077623
197	0xbe277bd9	-0.16355838
198	0x3df5c658	0.12000722
199	0xbd0d9850	-0.034569085
200	0x3de80f90	0.11331093
201	0x3dfb290b	0.12263688
202	0x3d588fbd	0.052871455
203	0x3d18cb62	0.037303336
204	0x3e50bf0a	0.20385376
205	0x3e193479	0.14961423
206	0x3d9f345c	0.07773659
207	0x3e5e6c6b	0.21721046
208	0x3e03fea0	0.128901
209	0x3e0028b4	0.12515527
210	0xbdd31d9b	-0.10308381
211	0xbd9b567a	-0.075848535
212	0xbbb8ea36	-0.0056431545
213	0xbd77baf2	-0.06048102
214	0xbd8b3884	-0.06797889
215	0xbe5bd6af	-0.21468614
216	0xbd4cb221	-0.049974564
217	0xbe8784b9	-0.26468447
218	0xbdea2e82	-0.11434652
219	0xbeb8e42f	-0.3611159
220	0xbda461e6	-0.08026485
221	0xbe267ad8	-0.16257799
222	0xbdb26bf6	-0.08711998
223	0xbd7c0530	-0.061528385
224	0x3af4e223	0.0018683117
225	0x3d5f67a8	0.054542214
226	0x3de386e1	0.111097105
227	0xbc00cd1f	-0.007861405
228	0xbe4749be	-0.19461724
229	0xbdbec15f	-0.09314226
230	0x3ca61d5f	0.020277677
231	0xbe847292	-0.2586866
232	0xbe3b12a6	-0.18268833
233	0x3d183b62	0.037166007
234	0xbd9eb985	-0.07750229
235	0xbe25a011	-0.16174342
236	0xbe5ff921	-0.21872379
237	0xbdb8b913	-0.09019675
238	0xbaba7f5a	-0.0014228628
239	0x3e920a09	0.2852328
240	0x3de5e6c6	0.11225657
241	0x3e46e129	0.1942183
242	0x3eb6e6d6	0.3572299
243	0x3e9909b2	0.2989021
244	0x3d190001	0.03735352
245	0x3da67801	0.08128358
246	0x3d7bc3b9	0.061465953
247	0xbdacede2	-0.0844381
248	0xbe84928a	-0.2589305
249	0xbe701874	-0.23446828
250	0xbdac4298	-0.08411139
251	0x3e027a5c	0.12741989
252	0x3d87b718	0.06626719
253	0xbdd89c92	-0.105767384
254	0xbd051e26	-0.032499455
255	0xbdb09298	-0.086217105

conv1.0.bias f4 [16]
0	0xbf09d883	-0.53845996
1	0xbed6999d	-0.41914073
2	0xbee0e4e6	-0.43924636
3	0xbe6e43ea	-0.23268095
4	0xbe48f445	-0.19624431
5	0xbef043fd	-0.4692687
6	0xbf1f1adf	-0.6215038
7	0xbec22fe2	-0.37927157
8	0xbe9912d9	-0.29897192
9	0xbebe1fc2	-0.37133604
10	0xbeedf4c4	-0.46475804
11	0xbee60fd9	-0.44933966
12	0xbee8432a	-0.45363742
13	0xbef41d21	-0.47678474
14	0xbeb344d4	-0.3501345
15	0xbe69789d	-0.22799917

conv2.0.weight f4 [32, 16, 5, 5]
0	0xbd4a059d	-0.04932176
1	0xbbacf299	-0.0052779433
2	0x3d67aabe	0.056559317
3	0xbd3a5c46	-0.045498155
4	0xbe30a52c	-0.17250508
5	0x39f07936	0.00045866676
6	0x3abbea3e	0.0014336777
7	0x3d8f5c7f	0.07000064
8	0x3cdab965	0.026699731
9	0xbe168a28	-0.1470114
10	0xbb0b97b7	-0.0021300146
11	0x3ca469bb	0.020069947
12	0x3d8cfd62	0.068842664
13	0xbe0d91b9	-0.1382512
14	0x3d47d137	0.048783507
15	0x3c12e6e2	0.00896618
16	0x3b52f3be	0.0032188739
17	0xbdb1c1a8	-0.08679515
18	0xbc34d6ed	-0.01103757
19	0xbdadccc0	-0.084863186
20	0xbdd3bddc	-0.10338947
21	0xbda5a423	-0.08087947
22	0xbd1707e6	-0.036872767
23	0x3d192ffa	0.03739927
24	0xbd83ccc4	-0.0643554
25	0xbc54b127	-0.01298169
26	0x3d70d72a	0.058798946
27	0xbd25eace	-0.04050713
28	0xbd185cca	-0.037197866
29	0xbe23a0c2	-0.15979293
30	0xbb80d6d2	-0.0039318586
31	0xbd062794	-0.03275259
32	0xbae5b80c	-0.0017526164
33	0xbe5a9c31	-0.21348645
34	0xbe41d728	-0.18929732
35	0x3c8995a0	0.01679498
36	0x3d41bc64	0.047298804
37	0xbd829697	-0.06376379
38	0xbe984097	-0.29736778
39	0xbcaadfbb	-0.020858636
40	0x3d383ed7	0.044981804
41	0xbe3a2339	-0.18177499
42	0xbe4a5c1f	-0.19761704
43	0xbdb69af3	-0.08916273
44	0xbc6afcb4	-0.014342476
45	0xbcf0b515	-0.029383222
46	0xbd90036f	-0.07031905
47	0xbc54b690	-0.012982979
48	0xbcd4d808	-0.025981918
49	0xbbf61882	-0.007510246
50	0x3c51f0e5	0.012813781
51	0x3d014cf5	0.031567533
52	0x3d429cea	0.047512926
53	0xbbd83cd2	-0.006599047
54	0x3d311288	0.043230563
55	0xbd9793f9	-0.074012704
56	0xbd8a50a7	-0.067536645
57	0xbdca6448	-0.098824084
58	0x3a4dd173	0.000785134
59	0x3d2f9d25	0.042874474
60	0xbd2a8ef1	-0.041640226
61	0xbe0257e0	-0.12728834
62	0xbd1ebb62	-0.03875292
63	0xbc1c88a2	-0.00955406
64	0xbd2fd48b	-0.042927306
65	0xbc9fde0e	-0.019515064
66	0x3d7607c5	0.060066003
67	0xbd662fdb	-0.056197982
68	0xbd090585	-0.03345253
69	0xbe0524b3	-0.13002281
70	0xbd4b3bd7	-0.049617615
71	0x3d39d277	0.04536673
72	0xbcef802b	-0.02923592
73	0x3cb0601f	0.02153021
74	0x3d8ab9ff	0.06773757
75	0x3cbfb29b	0.023400595
76	0x3d811b28	0.06304008
77	0xbd350cb9	-0.044201586
78	0x3d8ec837	0.06971782
79	0x3d50afc9	0.05094889
80	0x3d6f1ce8	0.058377177
81	0x3ca6f306	0.020379554
82	0xbe10cdda	-0.14141026
83	0xbe59fc1f	-0.21287583
84	0xbdcb1aad	-0.099171974
85	0x3ce394ee	0.027780976
86	0xbd64850c	-0.055790946
87	0xbe1c3859	-0.1525587
88	0xbe125421	-0.14289905
89	0xbdc6f999	-0.09715576
90	0xbe0097e5	-0.12557943
91	0xbc97e31c	-0.018540911
92	0xb9f1030c	-0.00045969372
93	0xbd0b7504	-0.03404714
94	0xbd01f2ee	-0.031725816
95	0x3c983816	0.018581431
96	0x3bb2c0cb	0.0054551116
97	0x3cbebe9b	0.023284247
98	0xbcb064ff	-0.021532534
99	0x3d36a2ac	0.04458873
100	0xbdad2961	-0.08455158
101	0x3c7db295	0.015484472
102	0x3cb2f697	0.021846099
103	0x3db3f91e	0.0878775
104	0xbe2d4cc2	-0.16923812
105	0xbd95c257	-0.07312458
106	0x3d9c1595	0.07621304
107	0x3d02c632	0.031927295
108	0xbc285767	-0.010274745
109	0xbe47ac9d	-0.1949944
110	0x3da43df2	0.08019628
111	0x3d72d9f6	0.059289895
112	0x3d92c985	0.07167343
113	0xbe2bebbd	-0.16789146
114	0xbd0b5402	-0.034015663
115	0x3c78edc8	0.01519341
116	0xbdc9cb85	-0.098532714
117	0xbd9da214	-0.076969296
118	0xbcf802a5	-0.030274699
119	0xbd9455f6	-0.07242958
120	0xbde2be03	-0.11071398
121	0xbd729b76	-0.05923029
122	0x3db8ca10	0.09022915
123	0x3abf8ce7	0.0014614136
124	0x3d749183	0.059709083
125	0x399bf94d	0.00029749647
126	0x3da0c1b4	0.07849446
127	0x3db00ab1	0.08595789
128	0xbdde47c4	-0.10853532
129	0x3cc25691	0.023722919
130	0x3c9556cc	0.018229865
131	0x3d430aba	0.04761765
132	0x3bb3ce8f	0.00548727
133	0xbded2b88	-0.115805686
134	0x3c1ca709	0.009561309
135	0xbd9e62cc	-0.07733688
136	0x3c3225f1	0.010873304
137	0x3d288006	0.041137718
138	0xbd20260c	-0.039098784
139	0xbdbb0aeb	-0.09132942
140	0x3dccd5a1	0.10001684
141	0x3defafe4	0.1170347
142	0xbcf52475	-0.02992461
143	0xbe42e6cd	-0.19033356
144	0xbdc99acf	-0.098439805
145	0x3d4f9295	0.0506769
146	0xbce563d1	-0.028001698
147	0xbe149819	-0.14511146
148	0xbdc30c24	-0.095238
149	0xbdbd0c72	-0.092308894
150	0xbd5e1581	-0.054219726
151	0xbcdefce1	-0.027220191
152	0x3d1592ae	0.036516838
153	0x3d5c9353	0.053851437
154	0xbe70b097	-0.23504864
155	0x3ce49e04	0.027907379
156	0xbb810d01	-0.0039383178
157	0x3d902af0	0.0703944
158	0x3c22cf45	0.009937112
159	0xbe16c0c7	-0.14721976
160	0x3dc7a6f6	0.09748642
161	0x3d7cf242	0.061754473
162	0x3dafb6a5	0.085797586
163	0xbe37510a	-0.17902008
164	0x3d29828b	0.04138426
165	0x3c827712	0.015925918
166	0xbd7ba33c	-0.06143497
167	0xbd9f41c2	-0.07776214
168	0x3d6cbe89	0.057798896
169	0xbc1da009	-0.009620675
170	0xbd8f527c	-0.069981545
171	0xbd59706a	-0.053085722
172	0xbd269e42	-0.04067827
173	0x3c8dd332	0.01731262
174	0xbc831638	-0.016001806
175	0xbc2205cf	-0.00988908
176	0xbcae84ac	-0.021303497
177	0x3d0d05a1	0.034429196
178	0x3c74997e	0.0149291735
179	0xbd2e7f2f	-0.04260176
180	0xbc562fb3	-0.013072896
181	0xbda1dc18	-0.07903308
182	0x3ba1011d	0.004913463
183	0x3d24f1b8	0.040269583
184	0xbd86fe1a	-0.06591435
185	0xbe301cfd	-0.17198558
186	0xbe3e65f3	-0.18593578
187	0x3d724d13	0.059155535
188	0x3e2cb88f	0.16867279
189	0xbd4ae638	-0.04953596
190	0xbdb91788	-0.09037691
191	0xbcbd61d7	-0.023117943
192	0x3d7a3d92	0.061093874
193	0x3d76bd94	0.06023939
194	0xbdb6bf33	-0.08923187
195	0x3d2f243f	0.042759176
196	0xbc4848d9	-0.0122243995
197	0x3ba73363	0.0051025613
198	0x3bbd2a19	0.0057728407
199	0x3c2efa7c	0.010679837
200	0xbba1398d	-0.0049201907
201	0x3c5a5817	0.013326666
202	0xbd384664	-0.044989005
203	0xbd88398f	-0.066516034
204	0x3d1a411c	0.03765975
205	0x3c090c49	0.008364745
206	0xbd958183	-0.07300093
207	0xbd7ce3a3	-0.06174053
208	0x3c52ff5f	0.012878268
209	0x3c2043b2	0.009781765
210	0xbddbe2f8	-0.1073665
211	0x3d146ac3	0.03623463
212	0x3be11097	0.0068684327
213	0x3c667dc0	0.014068067
214	0xbbc6e629	-0.0060699177
215	0x3cd47d5b	0.02593868
216	0x3d88e7d7	0.06684845
217	0x3d0abdc5	0.033872385
218	0x3ba5382e	0.0050420975
219	0xbd7c33e3	-0.06157292
220	0x3dca7183	0.09884932
221	0x3cc83749	0.024440425
222	0xbd3f3bb4	-0.046687797
223	0xbe078d40	-0.13237476
224	0xbe018d0d	-0.12651463
225	0x3cc2495f	0.023716627
226	0x3d9abf7c	0.07556054
227	0xbc264aa8	-0.010149635
228	0x3d167cb5	0.036740024
229	0xbdc9c2e1	-0.09851623
230	0xbca7594b	-0.02042832
231	0x3d94ae39	0.07259793
232	0x3d450733	0.04810257
233	0xbe7e79ea	-0.24851194
234	0xbe4ba03f	-0.19885348
235	0x3e070e30	0.13189006
236	0x3e025994	0.12729484
237	0xbe3ac26c	-0.18238229
238	0xbe910ae5	-0.28328624
239	0x3c0f7beb	0.008757572
240	0x3d2b0a90	0.04175812
241	0xbdccbd2e	-0.09997021
242	0xbda4c6ec	-0.08045754
243	0x3d733aab	0.059382122
244	0x3c2afaf1	0.010435806
245	0xbdebecff	-0.11519813
246	0xbd3db71c	-0.046317205
247	0xbc8dba7d	-0.017300839
248	0xbbbf9209	-0.005846266
249	0xbd8f84f2	-0.07007779
250	0xbe6fb2df	-0.23408078
251	0xbdfa09e3	-0.12208917
252	0xbbf9de29	-0.0076253605
253	0x3d6292bb	0.055315714
254	0x3d550362	0.05200518
255	0xbe2aa0ae	-0.16662857

conv2.0.bias f4 [32]
0	0xbd56d601	-0.052450184
1	0xbe0c1f60	-0.13683844
2	0xbb9ab16d	-0.004720858
3	0xbd093eb8	-0.03350708
4	0xbcc87426	-0.024469446
5	0xbc18e8e9	-0.009332874
6	0xbc502924	-0.012705121
7	0xbd054e0d	-0.03254514
8	0xbdd4638e	-0.10370551
9	0xbdd98ea8	-0.10622913
10	0xbd28438b	-0.04108004
11	0xbe078c26	-0.13237056
12	0xbd8c97d4	-0.068648964
13	0xbd3df7e7	-0.046378996
14	0xbcdcea3e	-0.026967164
15	0xbe24f444	-0.16108805
16	0xbc6c0911	-0.0144064585
17	0xbb2e46f0	-0.0026592575
18	0xbbd3e3a8	-0.0064663477
19	0xbde72e87	-0.11288171
20	0xbd938d79	-0.07204718
21	0xbc04e456	-0.00811108
22	0xbe03bda7	-0.12865315
23	0xbc140c47	-0.00903613
24	0xbdd60009	-0.104492255
25	0xbad5d12b	-0.0016312947
26	0xbd32e3a2	-0.04367412
27	0xbd8dc26b	-0.06921848
28	0xbd6c9eef	-0.05776876
29	0xbd3409c5	-0.04395463
30	0xbc625c41	-0.01381594
31	0xbd2b6607	-0.041845348

linear.weight f4 [20, 1568]
0	0xbd9a913d	-0.07547233
1	0xbd250788	-0.040290385
2	0x3daf4423	0.08557918
3	0x3c9b45d5	0.018954197
4	0xbd789a7a	-0.060694195
5	0xbd67b1b9	-0.056565974
6	0x3d255f6c	0.040374205
7	0x3dc96ce9	0.09835226
8	0xbc1f3a1e	-0.009718446
9	0xbe1d5057	-0.15362678
10	0x3b98451c	0.0046469104
11	0xbdc2acd9	-0.09505624
12	0xbd43b8f8	-0.04778382
13	0xbdbe52cb	-0.09293135
14	0xbe0bb6a5	-0.13643892
15	0xbd12adcd	-0.03581028
16	0xbc69804f	-0.014251783
17	0x3caef535	0.021357158
18	0x3cfad5fe	0.030619618
19	0xbe4073b7	-0.18794142
20	0xbe56c36f	-0.2097299
21	0xbdce2039	-0.1006474
22	0x3d6b6435	0.05746861
23	0x3d2c2d71	0.042035524
24	0x3c6a2182	0.014290215
25	0xbe089ec7	-0.13341819
26	0x3cb6133e	0.022225972
27	0x3d782e29	0.060590897
28	0x3b405907	0.002934994
29	0x3c75bb4a	0.0149982665
30	0x3d1bac82	0.038006313
31	0xbcc4f3f1	-0.024042102
32	0x3c740566	0.014893865
33	0x3c0d9bc8	0.008643098
34	0xbcecf2a1	-0.028924288
35	0x3cbaa01f	0.02278143
36	0xbd94bd36	-0.072626516
37	0xbe03b765	-0.12862928
38	0x3cc6e6b7	0.024279935
39	0x3cbff16a	0.023430545
40	0x3cf9973a	0.030467618
41	0x3be86c5f	0.007092997
42	0x3d63b769	0.055594835
43	0x3d614c2a	0.055004276
44	0xbdf447da	-0.11927767
45	0xbe9847d1	-0.29742292
46	0xbe5c760d	-0.21529408
47	0xbe0dfcc7	-0.13865958
48	0x3c357c96	0.011077067
49	0xbd89c964	-0.06727865
50	0xbd9541e8	-0.07287961
51	0xbc79ba6c	-0.0152422
52	0xbd725494	-0.05916269
53	0x3c8d9eac	0.017287575
54	0x3cb39f4f	0.02192655
55	0xbcc960f2	-0.02458236
56	0x3d53e465	0.051731486
57	0x3d3fba0b	0.046808284
58	0x3d732ef4	0.05937095
59	0x3d79958a	0.060933627
60	0x3d32a030	0.043609798
61	0x3d3a1a80	0.04543543
62	0x3d10bd77	0.035336938
63	0x3d49aa2d	0.049234558
64	0xbd316e73	-0.043318223
65	0xbe35d6d2	-0.17757729
66	0xbd0ccad5	-0.034373123
67	0x3dcddbab	0.10051664
68	0x3d731793	0.059348654
69	0x3d3d6e61	0.046247844
70	0xbe3ddd4e	-0.18541452
71	0xbe4997a7	-0.19686757
72	0xbdc120ba	-0.0943007
73	0x3db7e949	0.089800425
74	0xbdad31c7	-0.0845676
75	0xbe09de8d	-0.13463803
76	0xbdccaac6	-0.0999351
77	0xbe62a56d	-0.22133417
78	0xbe8025e3	-0.25028905
79	0x3c2072df	0.009793012
80	0x3de50c69	0.11184008
81	0x3d3a8fdc	0.04554735
82	0xbe6bc17d	-0.23023029
83	0xbe59ff65	-0.21288832
84	0xbdabd852	-0.08390869
85	0xbe01678a	-0.12637153
86	0xbd455f83	-0.04818679
87	0x3cd3a3fe	0.025835034
88	0xbdb2207a	-0.08697601
89	0xbea56cc7	-0.32309553
90	0xbe71c277	-0.23609339
91	0x3d4038c4	0.046929136
92	0xbcacc970	-0.021092147
93	0x3ce0a9f4	0.02742479
94	0xbeb7d09e	-0.3590135
95	0xbe78979f	-0.24276589
96	0xbe441b9a	-0.19151154
97	0xbded411c	-0.11584684
98	0xbd711a3e	-0.058862917
99	0xbd033f8b	-0.03204302
100	0xbd4e82a3	-0.050417554
101	0xbd595bd9	-0.05306611
102	0xbd10a839	-0.03531668
103	0xbdd6468f	-0.10462677
104	0xbde8dbac	-0.11370024
105	0xbe32b56a	-0.17452016
106	0xbba10490	-0.004913874
107	0xba6643fc	-0.0008783934
108	0x3cb1b69c	0.02169352
109	0xbcba5601	-0.022746088
110	0x3d62532c	0.0552551
111	0xbd09f00c	-0.033676192
112	0xbccefba5	-0.025266478
113	0x3dbdc47c	0.09265992
114	0x3cbca816	0.023029368
115	0xbda02768	-0.07820016
116	0x3d73deaa	0.05953852
117	0x3e1119e2	0.1417003
118	0x3d96ece6	0.073694035
119	0xbca2808f	-0.019836692
120	0x3d5f5958	0.054528564
121	0x3d5dcb1d	0.054148782
122	0xbdd66066	-0.10467605
123	0x3db7ac63	0.08968427
124	0x3d69f6f7	0.05712029
125	0xbdcdc4af	-0.1004728
126	0x3bb415be	0.005495756
127	0x3d4e6cb4	0.050396636
128	0x3d967cac	0.07347998
129	0xbe41a202	-0.18909457
130	0x3d704e6f	0.05866855
131	0x3c867020	0.016410887
132	0xbe5abe3e	-0.21361634
133	0x3dbdc267	0.09265595
134	0x3d7df218	0.061998457
135	0x3c979f68	0.018508628
136	0xbdba2e8d	-0.0909091
137	0xbe26c193	-0.1628478
138	0xbe78b9dd	-0.24289651
139	0xbe04f9e6	-0.12985954
140	0x3cad9544	0.02118934
141	0xbc60b33b	-0.013714607
142	0x3d2f4f13	0.04280002
143	0xbe2e998a	-0.17050758
144	0xbebe7fbe	-0.37206835
145	0xbe05ebb7	-0.130782
146	0x3c770488	0.015076764
147	0xbd018653	-0.031622242
148	0xbba301f1	-0.0049745967
149	0x3cdf36f8	0.02724789
150	0x3d5007d9	0.050788734
151	0x3c9cc98a	0.01913907
152	0xbca3e019	-0.020004319
153	0xbd5d2348	-0.053988725
154	0x3c92d798	0.017925069
155	0xbc391a8d	-0.011297834
156	0xbd720721	-0.05908883
157	0x3d81689f	0.06318783
158	0x3d9567df	0.072952025
159	0x3d65346d	0.0559582
160	0xbdb66483	-0.0890589
161	0x3d3395fd	0.04384421
162	0x3c6156ab	0.013753573
163	0x3c941eef	0.018081157
164	0x3d01518e	0.031571917
165	0x3d914116	0.07092492
166	0x3e16f523	0.1474195
167	0xbe0d9400	-0.13825989
168	0xbc38f87e	-0.011289714
169	0xbd5dea89	-0.05417875
170	0xbd9020c7	-0.07037502
171	0xbe1e338e	-0.15449354
172	0x3c8658b5	0.01639972
173	0x3d615be7	0.055019286
174	0xbc8eec56	-0.017446678
175	0xbd3f5579	-0.046712372
176	0xbd184e3a	-0.037183978
177	0x3cfba1c4	0.030716784
178	0xbd98f7b9	-0.07469124
179	0xbc926cdb	-0.017874172
180	0xbc852671	-0.016253682
181	0x3dc458f4	0.09587279
182	0xbd9fc6cc	-0.07801589
183	0x3cb4f8ec	0.022091351
184	0x3d52b53e	0.051442377
185	0x3d014b13	0.031565737
186	0xbdb13015	-0.08651749
187	0xbdfb08d1	-0.12257541
188	0xbc719133	-0.014744091
189	0xbdb90fce	-0.09036218
190	0x3c85a235	0.016312698
191	0x3caa2eb3	0.020774221
192	0xbc257ef6	-0.010101071
193	0xbde1bf92	-0.11022867
194	0xbe582a18	-0.21109807
195	0xbe6ada55	-0.2293485
196	0x3b924b79	0.0044645634
197	0xbdd9b479	-0.106301256
198	0xbd019ce6	-0.03164377
199	0xbd88234c	-0.06647357
200	0xbd73aa15	-0.059488375
201	0x3d388d0f	0.0450564
202	0x3d44b67f	0.048025604
203	0xbdf4527e	-0.11929797
204	0x3cb49bf0	0.022047013
205	0xbd5fcf3f	-0.054641005
206	0x3bc14a2c	0.0058987346
207	0xbc9b044c	-0.018922947
208	0x3cf6c1da	0.030121733
209	0xbddec725	-0.108778276
210	0x3b3f8806	0.0029225363
211	0xbcd07755	-0.025447527
212	0x3d0d62c2	0.03451801
213	0xbdae54c1	-0.08512259
214	0x3cc1614e	0.023605969
215	0x3dc1ef7c	0.09469506
216	0x3cf9e840	0.030506253
217	0x3d51e4b5	0.051243503
218	0x3ca8cfe7	0.020606948
219	0x3d8ac7ea	0.06776412
220	0xbd96c8eb	-0.07362541
221	0x3cff02bb	0.031129232
222	0x3d387e1d	0.045042146
223	0x3dc81743	0.09770062
224	0xbbd83507	-0.006598118
225	0x3cf1ef97	0.02953319
226	0x3c4ae4f8	0.012383692
227	0xbd602724	-0.054724827
228	0xbbd0746c	-0.006361535
229	0x3d1363e1	0.035983924
230	0x3ca42c9b	0.0200408
231	0x3d1cc0f1	0.03826994
232	0x3cd48edf	0.025947032
233	0x3d1fb441	0.038990263
234	0x3b4b2939	0.0030999912
235	0xbe8c2cac	-0.27377832
236	0xbe0cb2f1	-0.13740136
237	0xbdebf0c3	-0.11520531
238	0xbd29e992	-0.041482516
239	0x3d985c66	0.074394986
240	0xbde14ad9	-0.11000604
241	0xbe7f9fe3	-0.24963336
242	0xbec24efb	-0.37950882
243	0xbe7b961e	-0.24568984
244	0xbdb01299	-0.08597297
245	0xbccdcfd2	-0.02512351
246	0xbd380b4c	-0.04493265
247	0xbccffdbe	-0.025389548
248	0xbd188d13	-0.037243914
249	0x3d661ba8	0.05617872
250	0xbdb7a2df	-0.08966612
251	0x3c9ae137	0.018906219
252	0x3d680dfc	0.05665396
253	0x3c0350e8	0.008014895
254	0x3c2c8124	0.010528836
255	0x3caa9bda	0.020826269

linear.bias f4 [20]
0	0xbd617761	-0.05504549
1	0x3d3938fb	0.045220356
2	0xbda07f2a	-0.078367546
3	0x3d431a71	0.04763264
4	0x3c6c1fc1	0.014411868
5	0xbd7b7da2	-0.06139911
6	0x3d1b7b8a	0.037959613
7	0xbd4bbdab	-0.04974143
8	0x3da2983a	0.07939191
9	0x3cba056d	0.022707665
10	0x3c0b393a	0.008497531
11	0xbc805962	-0.015667621
12	0x3c6802fe	0.01416087
13	0xbc797163	-0.015224787
14	0x3b64cfb4	0.003491384
15	0xbc252b69	-0.010081151
16	0x3bfb8f76	0.007677014
17	0xbc2efc94	-0.0106803365
18	0xbcbec385	-0.02328659
19	0x3c3b90a4	0.011448059
