res/mnist/combined_mdl.pth (torch, 181370 bytes, 6 tensors)

conv1.0.weight f4 [16, 1, 5, 5]
-0.046932183 -0.22960314 0.14423037 0.19378196 -0.13722783 -0.28195518 0.075513214 0.20023829
0.20012657 -0.15000726 -0.08170617 0.060792744 0.1759049 -0.015531821 -0.03829555 0.17651933
0.046055835 -0.15539692 0.13228159 0.04966665 -0.13983051 0.085943036 -0.025200656 0.06483821
0.03683835 0.022149319 0.03003721 -0.034783117 0.11281636 -0.031991687 -0.20169687 -0.18053427
-0.22688667 -0.29791138 -0.30443883 -0.0999119 -0.022425672 -0.05806873 -0.09624168 -0.085729025
0.0032519605 -0.22196643 -0.032092147 0.0025467826 0.12308052 0.18253165 0.19643147 -0.06843379
0.17350794 0.15455621 -0.1091769 -0.02954109 -0.084332265 0.12513123 -0.099039696 0.21458511
0.2646088 0.09455473 0.2201269 0.2047443 0.004722848 0.17891559 -0.04877393 0.14360742
0.12488317 -0.46218872 -0.17749006 -0.19897616 -0.2449033 -0.07959028 -0.06249217 -0.14936842
-0.058086812 -0.20245461 -0.12272174 0.03709577 0.193621 0.15156427 0.06386136 -0.07844509
0.2815108 -0.012595725 0.11678032 -0.23370627 -0.1341945 0.11646076 0.018428216 -0.14412089
-0.15105304 -0.024234805 0.087286495 -0.2099542 -0.31019694 -0.100692794 0.04383151 -0.19960244
-0.23330973 -0.093415335 0.13399382 0.04348742 0.08117058 0.16982374 0.22278419 0.06771023
0.32866594 -0.11826561 -0.041521665 0.10509536 0.09632528 -0.08699669 -0.20429005 -0.16727845
-0.27549994 -0.24435794 -0.21814184 -0.06731095 -0.19094788 -0.17845656 -0.15715468 -0.07140969
0.17365026 0.027478123 0.042584322 0.11637975 0.034440115 0.22091332 -0.16699685 -0.34664246
0.07392277 0.27578917 0.20885547 0.11280331 -0.07303699 -0.15947415 0.2119391 -0.06967834
-0.10195522 0.08990801 -0.11318799 0.010350742 0.08962628 -0.03784702 -0.028323896 -0.1629441
0.066491015 -0.124842994 -0.15967642 -0.19470897 -0.05179067 0.035239514 -0.043268237 0.08017369
-0.19894741 0.05506944 -0.02559728 0.010847341 0.11022177 -0.008960035 -0.2136066 -0.14356777
-0.0408357 0.16731271 0.14443521 -0.07365427 -0.28129855 -0.08391248 -0.03476112 0.20130824
0.1973021 -0.11095142 -6.0594713e-05 -0.05334608 0.092235126 0.111495584 0.10382168 -0.12747243
0.085222356 -0.046275645 -0.062437057 -0.17400184 -0.2230605 0.09639916 0.025492469 0.1481781
-0.0114934975 -0.028149735 0.11270031 0.054758854 0.07458561 -0.17360754 -0.0013842458 0.09555085
-0.01368131 0.15847223 -0.05647671 -0.11295861 0.033578906 -0.07701494 0.23234151 0.059556477
0.071836375 0.2718231 0.16470963 0.007971822 0.088851795 -0.051835645 -0.15071428 0.20290923
-0.037781484 0.09042648 -0.14152975 -0.09917561 -0.10032736 0.11876712 0.14797565 -0.03581666
-0.14500813 0.009351028 -0.08030235 -0.0035249148 -0.16679284 0.035477515 -0.12957746 0.017303413
0.14581518 -0.29895306 -0.10545345 -0.030826228 0.016833888 -0.011268644 -0.0112254005 -0.027990706
0.24555549 -0.06540509 0.06671629 0.14497285 0.29249033 0.1182316 0.14210989 0.19090763
-0.028664019 0.13613209 -0.052967623 -0.0064523458 0.02206839 -0.09939361 -0.07446751 -0.31841984
-0.16039515 -0.2490986 0.014054293 -0.043169256 -0.26148355 -0.33403364 -0.20165776 0.05330922
00000000: f63b 40bd 161d 6bbe 20b1 133e c76e 463e
00000010: 7485 0cbe 6e5c 90be aca6 9a3d 440b 4d3e
00000020: fbed 4c3e 819b 19be 9155 a7bd d001 793d
00000030: 6a20 343e 2e79 7ebc cbdb 1cbd 7cc1 343e
00000040: 0ba5 3c3d 5f20 1fbe d374 073e 426f 4b3d
00000050: bb2f 0fbe e702 b03d 9b71 cebc e5c9 843d
00000060: cfe3 163d 7d72 b53c 9810 f63c be78 0ebd
00000070: 440c e73d b709 03bd a089 4ebe fadd 38be
00000080: fb54 68be d787 98be 68df 9bbe 9c9e ccbd
00000090: 0bb6 b7bc 7ad9 6dbd 5c1a c5bd b392 afbd
000000a0: d81e 553b 2b4b 63be 0e73 03bd ece7 263b
000000b0: a411 fc3d 94e9 3a3e 5525 493e 0427 8cbd
000000c0: 11ac 313e fc43 1e3e 2398 dfbd 2800 f2bc
000000d0: 65b6 acbd 6722 003e 53d5 cabd 33bc 5b3e
000000e0: ce7a 873e e9a5 c13d f268 613e 7da8 513e
000000f0: 1fc2 9a3b a635 373e 2cc7 47bd d30d 133e
00000100: bfc2 ff3d 00a4 ecbe f4bf 35be 68c0 4bbe
00000110: eec7 7abe 3b00 a3bd caf7 7fbd 09f4 18be
00000120: 70ec 6dbd 4350 4fbe 8955 fbbd bcf1 173d
00000130: 9544 463e aa33 1b3e bfc9 823d d2a7 a0bd
00000140: 2f22 903e 4d5e 4ebc 852a ef3d b250 6fbe
00000150: 486a 09be fb82 ee3d c5f6 963c 6d94 13be
00000160: a6ad 1abe 1288 c6bc 43c3 b23d 3cfe 56be
00000170: 22d2 9ebe 0638 cebd ab88 333d 9564 4cbe
00000180: bfe8 6ebe 8a50 bfbd ad35 093e dd1f 323d
00000190: c33c a63d 46e6 2d3e 8a21 643e a9ab 8a3d
000001a0: e746 a83e 3d35 f2bd 9f12 2abd 3c3c d73d
000001b0: 3046 c53d 522b b2bd 6931 51be 0b4b 2bbe
000001c0: 540e 8dbe f838 7abe 9360 5fbe 53da 89bd
000001d0: d787 43be 51bd 36be 28ed 20be 3e3f 92bd
000001e0: 60d1 313e cd19 e13c e66c 2e3d 8258 ee3d
000001f0: 1411 0d3d 1a37 623e 3901 2bbe 1f7b b1be
00000200: d264 973d 3d34 8d3e 35de 553e 6c05 e73d
00000210: 6b94 95bd 314d 23be 9006 593e 84b3 8ebd
00000220: e6cd d0bd b121 b83d 1bcf e7bd 2996 293c
00000230: fc8d b73d 7a05 1bbd 8407 e8bc d1da 26be
00000240: 712c 883d afad ffbd 3782 23be ca61 47be
00000250: 7422 54bd 4f57 103d 093a 31bd 1b32 a43d
00000260: dfb8 4bbe 7e90 613d 63b1 d1bc 0cb9 313c
00000270: f4bb e13d 1ccd 12bc b0bb 5abe 6e03 13be
00000280: 5643 27bd 0654 2b3e d3e6 133e 0dd8 96bd
00000290: 5d06 90be 4eda abbd ad61 0ebd bf23 4e3e
000002a0: 9009 4a3e 803a e3bd 1427 7eb8 6b81 5abd
000002b0: c5e5 bc3d cc57 e43d 76a0 d43d 2288 02be
000002c0: 0f89 ae3d 888b 3dbd 00be 7fbd 8a2d 32be
000002d0: f969 64be ec6c c53d 95d5 d03c 00bc 173e
000002e0: 394f 3cbc 469a e6bc 6ccf e63d d24a 603d
000002f0: 57c0 983d 2dc6 31be 956f b5ba 2ab0 c33d
00000300: 9327 60bc 8b46 223e 1f54 67bd d856 e7bd
00000310: 098a 093d 02ba 9dbd efea 6d3e 7ef1 733d
00000320: f31e 933d 662c 8b3e a4a9 283e 3f9c 023c
00000330: eef7 b53d 9d51 54bd d854 1abe 70c7 4f3e
00000340: c2c0 1abd 8531 b93d 2ded 10be 951c cbbd
00000350: 6e78 cdbd 2d3c f33d ee86 173e 7db4 12bd
00000360: 037d 14be 0e35 193c 8f75 a4bd 4202 67bb
00000370: becb 2abe df50 113d f4af 04be e3bf 8d3c
00000380: 9350 153e 6010 99be faf7 d7bd 4987 fcbc
00000390: 39e7 893c 1ea0 38bc beea 37bc c44c e5bc
000003a0: e672 7b3e 1bf3 85bd 8da2 883d c373 143e
000003b0: 4bc1 953e 6923 f23d 4185 113e 4a7d 433e
000003c0: ced0 eabc 3666 0b3e 94f4 58bd 336e d3bb
000003d0: c5c8 b43c e18e cbbd 6c82 98bd ed07 a3be
000003e0: a03e 24be b413 7fbe fa43 663c 3fd2 30bd
000003f0: 2ce1 85be 7506 abbe 5f7f 4ebe c55a 5a3d

conv1.0.bias f4 [16]
-0.51205593 -0.36864164 -0.24817978 -0.36748162 -0.34739736 -0.28994069 -0.28392947 -0.08577497
-0.40142617 -0.22899725 -0.21827693 -0.17210302 -0.17559488 -0.53566176 -0.30737293 -0.16242084
00000000: 1916 03bf 99be bcbe d722 7ebe 8d26 bcbe
00000010: 11de b1be 1b73 94be 345f 91be caaa afbd
00000020: bb87 cdbe 417e 6abe fd83 5fbe c63b 30be
00000030: 25cf 33be 2121 09bf fc5f 9dbe a651 26be

conv2.0.weight f4 [32, 16, 5, 5]
0.041692566 0.020123169 -0.10058931 -0.050147668 -0.009955588 0.15859869 0.007248348 -0.09316472
-0.09511385 -0.049926154 0.017416399 0.012925986 -0.20607038 -0.1729842 -0.028252322 0.15619849
-0.062948756 -0.026706133 0.07847717 -0.07432195 -0.060870446 0.06123691 0.050331794 0.051626276
0.048253804 -0.047812816 -0.055415682 -0.08425037 0.036432043 0.10598144 -0.24605674 -0.22385506
-0.25428 -0.12867759 -0.032442477 -0.15648505 -0.03464485 0.007560114 -0.052673154 -0.06453441
-0.06523041 -0.04629357 0.029821057 0.07609072 0.025552232 -0.06395422 -0.041552708 -0.08068322
0.019050831 0.09804242 -0.066242054 -0.16163187 0.0019338583 -0.04376707 -0.0021896148 -0.1160884
-0.26141143 0.016273987 0.015846265 0.06662127 0.021301802 -0.0872827 -0.09605795 0.006226245
0.13162309 0.008535055 0.017475681 0.026728895 -0.021936191 -0.16460136 0.010351178 0.04004443
0.08631809 0.0060827695 0.05970186 -0.14265864 0.02177013 0.043822743 0.026434876 0.10766286
-0.27785823 -0.033634294 -0.010533314 -0.09766629 -0.010950987 -0.17387956 0.121143095 0.004663175
-0.15543848 -0.15978655 -0.031384427 0.053581636 -0.014136059 -0.1370631 -0.14204288 -0.172898
-0.115752876 -0.016402027 0.018268598 -0.066519745 -0.19552043 -0.011707228 -0.004549761 0.010976236
-0.056845263 -0.15966472 -0.2645963 -0.08533062 -0.09651522 -0.021664457 -0.2178305 -0.28032437
-0.024506355 -0.019084785 0.14062557 0.03865916 0.0034372357 -0.0328629 0.14415689 0.061020806
-0.042408913 0.02034369 0.06381702 0.10872622 -0.05479103 -0.02921237 -0.06004191 -0.007007319
0.01671266 0.05257711 -0.1448081 0.009247011 0.07342736 0.039681092 -0.0079582855 -0.19438928
-0.01305222 0.10591074 -0.03547982 0.12467318 -0.105987124 0.009112851 -0.089955956 0.062055174
0.008785044 -0.042748753 0.0222917 -0.03918935 -0.06128083 -0.09546415 0.013544106 0.13251561
-0.0088902535 -0.07890282 -0.03851511 -0.015758716 0.009849226 -0.081715025 -0.10870889 -0.04021152
-0.056726065 0.04568021 0.057882436 0.037877023 -0.190274 0.04649898 0.038347058 -0.027342882
0.045406394 0.08339819 0.08149863 -0.040745407 0.067099236 0.03958789 0.07005091 0.07828157
-0.007738077 -0.14077798 -0.09783396 0.0032400552 0.014235584 0.018055351 -0.09222575 -0.097294234
0.030832468 0.045932133 0.038524233 0.04248598 -0.122322135 -0.15097442 0.11021403 0.07801301
0.07740306 0.07266842 0.025833674 0.034391027 -0.037212458 0.1008519 0.045546673 0.07280289
0.08967131 -0.15104559 -0.026566816 0.08100796 -0.0076544243 0.03735108 -0.27048725 -0.14395298
0.003948971 0.04028322 0.027865067 -0.17209515 -0.205439 -0.05838859 0.026629467 0.028049514
-0.0020692968 -0.117689095 -0.09505701 -0.1507298 0.006817979 0.020894032 -0.03334327 0.07188663
-0.08620946 -0.05765364 0.048997242 -0.033380084 -0.03210152 0.11171435 0.0113901505 -0.041122936
0.0102361925 0.056749582 0.048286073 0.039429642 -0.0030884773 -0.13909784 -0.007423055 -0.04650075
-0.054575875 -0.07804745 0.029980786 -0.048857983 -0.15891805 -0.040511556 0.08564023 0.040402412
0.0023347442 0.019723853 -0.0055063674 -5.918657e-06 -0.036963828 0.02529127 -0.053562913 -0.024398051
00000000: d3c5 2a3d 58d9 a43c c501 cebd a467 4dbd
00000010: c31c 23bc b267 223e 8d83 ed3b 25cd bebd
00000020: 0dcb c2bd 5e7f 4cbd d6ac 8e3c 84c7 533c
00000030: 1d04 53be c522 31be 6a71 e7bc 7ff2 1f3e
00000040: 47eb 80bd d2c6 dabc a3b8 a03d 1b36 98bd
00000050: 4a53 79bd 8ed3 7a3d b628 4e3d 1376 533d
00000060: c8a5 453d 5fd7 43bd 8efb 62bd 758b acbd
00000070: c439 153d cc0c d93d 4cf6 7bbe 433a 65be
00000080: fd30 82be 0fc4 03be 67e2 04bd 9e3d 20be
00000090: c2e7 0dbd d5ba f73b cebf 57bd 9e2a 84bd
000000a0: 8597 85bd 549e 3dbd 4a4b f43c 74d5 9b3d
000000b0: ea52 d13c 6efa 82bd 2c33 2abd 3e3d a5bd
000000c0: 7d10 9c3c 77ca c83d eaa9 87bd d382 25be
000000d0: 8479 fd3a 1945 33bd a47f 0fbb c1bf edbd
000000e0: b8d7 85be 0651 853c 07d0 813c bb70 883d
000000f0: 1e81 ae3c 46c1 b2bd 08ba c4bd 8705 cc3b
00000100: 34c8 063e 9ed6 0b3c 2929 8f3c 8ef6 da3c
00000110: 87b3 b3bc 428d 28be fd97 293c a105 243d
00000120: 8ac7 b03d f851 c73b f089 743d 1b15 12be
00000130: 4657 b23c 7a7f 333d f48d d83c 587e dc3d
00000140: 6f43 8ebe 1dc4 09bd ec93 2cbc 4405 c8bd
00000150: c56b 33bc 7c0d 32be df19 f83d 8ccd 983b
00000160: 442b 1fbe 169f 23be f58c 00bd 6b78 5b3d
00000170: ee9a 67bc 455a 0cbe b073 11be 2c0c 31be
00000180: d80f edbd 8b5d 86bc 07a8 953c 813b 88bd
00000190: 8236 48be accf 3fbc 2916 95bb acd5 333c
000001a0: 94d6 68bd 267f 23be 2b79 87be d2c1 aebd
000001b0: c6a9 c5bd a979 b1bc f50e 5fbe ad86 8fbe
000001c0: 8dc1 c8bc b257 9cbc 2600 103e 1159 1e3d
000001d0: 3f43 613b 409b 06bd dd9d 133e f4f0 793d
000001e0: f8b4 2dbd cfa7 a63c 7fb2 823d daab de3d
000001f0: 8f6c 60bd c84e efbc 81ee 75bd a79d e5bb
00000200: fde8 883c 185b 573d 9348 14be c680 173c
00000210: 1561 963d a488 223d 7863 02bc fc0d 47be
00000220: fbd8 55bc bbe7 d83d 4a53 11bd a754 ff3d
00000230: c70f d9bd 114e 153c d43a b8bd 912d 7e3d
00000240: 25ef 0f3c 5119 2fbd 159d b63c 0385 20bd
00000250: 9c01 7bbd b582 c3bd 19e8 5d3c 2cb2 073e
00000260: 6da8 11bc cd97 a1bd 05c2 1dbd 6c18 81bc
00000270: a65e 213c 355a a7bd c4a2 debd d6b4 24bd
00000280: 9759 68bd 2c1b 3b3d 2216 6d3d f024 1b3d
00000290: 30d7 42be b775 3e3d ce11 1d3d 2efe dfbc
000002a0: 0efc 393d accc aa3d c1e8 a63d a8e4 26bd
000002b0: 536b 893d e926 223d da76 8f3d 1652 a03d
000002c0: b28f fdbb 1a28 10be 2c5d c8bd 1b57 543b
000002d0: 5e3c 693c d1e8 933c dbe0 bcbd 3342 c7bd
000002e0: 5f94 fc3c 5523 3c3d 96cb 1d3d c705 2e3d
000002f0: 0784 fabd 0a99 1abe e5b7 e13d 49c5 9f3d
00000300: 7f85 9e3d 2ed3 943d 24a1 d33c 9bdd 0c3d
00000310: 176c 18bd 718b ce3d 268f 3a3d ae19 953d
00000320: 97a5 b73d b2ab 1abe a7a2 d9bc 80e7 a53d
00000330: f7d1 fabb 72fd 183d 4e7d 8abe 6968 13be
00000340: 5f66 813b 0500 253d 4845 e43c b639 30be
00000350: 9a5e 52be e028 6fbd 0a26 da3c 18c8 e53c
00000360: 0a9d 07bb fb06 f1bd 40ad c2bd ea58 1abe
00000370: 5a69 df3b f629 ab3c f492 08bd 4c39 933d
00000380: 968e b0bd 3926 6cbd 55b1 483d 8eb9 08bd
00000390: e27c 03bd 7eca e43d c19d 3a3c 8670 28bd
000003a0: b4b5 273c 4072 683d 9ec7 453d fa80 213d
000003b0: 0d68 4abb aa6f 0ebe 193d f3bb 9277 3ebd
000003c0: f48a 5fbd 57d7 9fbd 449a f53c 4f1f 48bd
000003d0: 6abb 22be 72ef 25bd 2564 af3d 007d 253d
000003e0: 8202 193b eb93 a13c c26e b4bb e098 c6b6
000003f0: 6267 17bd a32f cf3c c964 5bbd 6cde c7bc

conv2.0.bias f4 [32]
-0.14548823 -0.017658545 -0.044822253 -0.19034964 -0.12678087 -0.0817895 -0.07713774 -0.11924322
-0.18412204 -0.061256863 -0.025726466 -0.08211183 -0.14780974 -0.059772603 -0.0445247 -0.12192823
0.05849366 -0.12540524 -0.1441256 0.04793999 -0.008738016 -0.02092982 -0.054423105 -0.034146532
-0.0095679145 -0.03893514 -0.059217162 -0.02141548 -0.06663021 -0.09311705 -0.16938473 -0.03166725
00000000: defa 14be a7a8 90bc 8a97 37bd 04eb 42be
00000010: d8d2 01be 4181 a7bd 64fa 9dbd ca35 f4bd
00000020: 7d8a 3cbe 7ae8 7abd 4fc0 d2bc 3f2a a8bd
00000030: 705b 17be 1ed4 74bd 885f 36bd 82b5 f9bd
00000040: 0c97 6f3d 3b6a 00be a995 13be b95c 443d
00000050: e529 0fbc 0475 abbc c3ea 5ebd 3cdd 0bbd
00000060: bec2 1cbc 747a 1fbd b28d 72bd 846f afbc
00000070: 6b75 88bd 27b4 bebd 3173 2dbe 85b5 01bd

linear.weight f4 [20, 1568]
-0.0070174583 -0.0058652144 -0.0037057225 0.009464487 0.03338671 0.091501564 -0.0048513385 -0.025740976
0.037612744 0.06866498 0.004866842 -0.03426251 -0.028743574 0.0146386605 -0.11667301 -0.25900513
-0.09388656 -0.07393627 -0.084651776 -0.063550636 -0.033841055 -0.3052019 -0.29131058 0.09124379
0.07551083 -0.21040475 0.05226167 0.05515004 -0.12459188 -0.19252543 0.036834814 0.07454335
-0.07702326 -0.019593094 -0.001286111 -0.07242294 0.0038846268 0.07873766 -0.072784476 -0.04337679
-0.041748304 -0.050334882 -0.018865103 -0.008513593 -0.06659634 -0.21991745 -0.11920375 -0.12566958
-0.10195621 0.00058992615 0.021336297 -0.047811337 -0.02972191 -0.1963113 -0.086087696 -0.009116372
0.0026149536 0.054118622 0.015172868 -0.09471655 -0.057881843 0.03721092 0.029796572 0.0111280475
-0.015410196 -0.13512205 0.04771302 -0.0021319422 0.008170605 0.042729255 0.100170456 0.0872724
0.025880523 0.18449152 -0.013153901 0.02707373 0.04958244 -0.005709823 -0.005693641 0.073973395
-0.12395892 -0.08111675 -0.0148929125 0.026758883 -0.09561038 -0.021838427 0.030441651 -0.10908464
-0.19700244 -0.16438587 -0.048593912 0.029067367 -0.010187277 -0.06947945 0.03029028 -0.08668989
-0.1374638 -0.13857494 -0.050349787 -0.03485182 -0.05751108 -0.022620581 -0.011452804 0.050712287
0.07733706 -0.08719087 -0.023422586 -0.085547194 -0.049810823 0.018811084 -0.0031066202 -0.03148883
-0.049787756 -0.12868147 -0.14172724 -0.0053490507 0.17478676 0.022385929 -0.11788277 0.037617393
-0.037522063 -0.051805098 0.10983848 0.18866435 0.113239795 -0.19888732 0.001429609 0.017449822
0.04699725 -0.0030107286 0.10531278 -0.016588898 -0.023356263 0.011729284 0.059268612 0.13418958
-0.05706882 -0.04076317 0.031378455 0.12271566 0.024945015 0.029364761 0.0687684 -0.09629731
-0.07378693 -0.08545699 0.027131908 -0.0371721 -0.106935 -0.0020796796 0.0061233095 0.036956955
0.06929134 -0.0014750893 0.04347594 -0.014125219 -0.015041357 -0.022975061 -0.04237838 -0.120231435
-0.11044622 0.067950025 0.0034262186 -0.014378047 -0.11158345 -0.20807925 -0.06546692 -0.23086396
0.006812708 -0.18176198 -0.24525173 0.0774385 0.037470445 -0.10759022 -0.274665 -0.18597303
-0.25454408 -0.15596218 -0.08571385 -0.053118166 -0.001826344 0.07489023 -0.1172736 -0.11723182
-0.028539183 0.06455629 0.11869529 0.03210394 -0.01505537 0.036185358 0.023679499 0.045634788
0.031699695 0.017546467 -0.023345327 -0.04408066 -0.036522042 -0.0800604 -0.03973201 0.0015892648
-0.032823566 -0.014565189 -0.096525766 -0.03440951 -0.044896625 -0.13940103 -0.023034448 0.05617241
0.0679107 0.12819412 -0.02810765 -0.06641653 -0.02132689 -0.040639516 0.056785196 0.07018154
0.065349594 0.021198664 -0.023494031 0.1708332 -0.06438319 0.011291927 0.071615234 -0.06605022
0.06519491 0.038611554 0.16138633 0.049352806 -0.023908492 -0.051652685 -0.032688186 -0.1069761
0.009337168 0.013721296 -0.18234862 -0.25693196 -0.15364781 -0.14951807 -0.06035209 -0.036927093
-0.13114585 -0.2910709 -0.33043376 -0.29592976 -0.20466065 -0.11078181 -0.029283376 -0.0027627756
-0.033788323 -0.022681901 -0.11372773 -0.101305746 -0.0765027 -0.070089646 -0.012208203 -0.00325753
00000000: b5f2 e5bb fc30 c0bb b5db 72bb f010 1b3c
00000010: 81c0 083d 2c65 bb3d faf7 9ebb bdde d2bc
00000020: d20f 1a3d 3aa0 8c3d 087a 9f3b d856 0cbd
00000030: a577 ebbc fed6 6f3c 42f2 eebd 529c 84be
00000040: 9947 c0bd e66b 97bd e95d adbd d626 82bd
00000050: eb9c 0abd 6c43 9cbe a926 95be 06de ba3d
00000060: 6ca5 9a3d 5874 57be 5510 563d 02e5 613d
00000070: 072a ffbd 6325 45be 1ae0 163d 2faa 983d
00000080: 5fbe 9dbd b281 a0bc b992 a8ba 7a52 94bd
00000090: 3995 7e3b 3641 a13d 0710 95bd dcab 31bd
000000a0: 4500 2bbd f32b 4ebd fd8a 9abc 997c 0bbc
000000b0: a963 88bd 0a32 61be 1821 f4bd 87af 00be
000000c0: 6bce d0bd 46a5 1a3a 75c9 ae3c d2d5 43bd
000000d0: 5d7b f3bc d405 49be bf4e b0bd d65c 15bc
000000e0: a45f 2b3b 7dab 5d3d 9f97 783c c0fa c1bd
000000f0: 8315 6dbd 7a6a 183d f117 f43c 6a52 363c
00000100: 0c7b 7cbc 6f5d 0abe ba6e 433d 0eb8 0bbb
00000110: 00de 053c df04 2f3d 2b26 cd3d dfbb b23d
00000120: 6403 d43c 58eb 3c3e 7683 57bc bac9 dd3c
00000130: f516 4b3d 7819 bbbb b991 babb 5d7f 973d
00000140: 2dde fdbd 8a20 a6bd 6701 74bc 7235 db3c
00000150: 60cf c3bd 80e6 b2bc c560 f93c c567 dfbd
00000160: 02bb 49be c554 28be 690a 47bd b01e ee3c
00000170: 89e8 26bc 3e4b 8ebd 5223 f83c 788a b1bd
00000180: 4fc3 0cbe 97e6 0dbe 943b 4ebd c8c0 0ebd
00000190: bd90 6bbd cc4e b9bc 8ba4 3bbc b0b7 4f3d
000001a0: e462 9e3d 2091 b2bd b9e0 bfbc 5e33 afbd
000001b0: 6f06 4cbd b419 9a3c 7098 4bbb 6efa 00bd
000001c0: 3fee 4bbd 13c5 03be f220 11be 1747 afbb
000001d0: 4dfb 323e b262 b73c 866c f1bd b214 1a3d
000001e0: bcb0 19bd 9531 54bd fff2 e03d 3a31 413e
000001f0: 44ea e73d 1ea9 4bbe b861 bb3a eef2 8e3c
00000200: 3080 403d a54f 45bb 3aae d73d 71e5 87bc
00000210: a255 bfbc 2f2c 403c a5c3 723d fe68 093e
00000220: ffc0 69bd 48f7 26bd b286 003d 5952 fb3d
00000230: 7d59 cc3c 5e8e f03c 72d6 8c3d 8637 c5bd
00000240: 9a1d 97bd 1304 afbd bc43 de3c c641 18bd
00000250: bd00 dbbd 3c4b 08bb 0ba6 c83b 2d60 173d
00000260: 9ee8 8d3d c957 c1ba d413 323d 766d 67bc
00000270: 0670 76bc 3236 bcbc f494 2dbd e63b f6bd
00000280: a131 e2bd 6229 8b3d 698a 603b e691 6bbc
00000290: dd85 e4bd ba12 55be 8513 86bd 9a67 6cbe
000002a0: 233d df3b d01f 3abe 4523 7bbe 1498 9e3d
000002b0: 9c7a 193d 4358 dcbd e4a0 8cbe b76f 3ebe
000002c0: 9a53 82be 8db4 1fbe be8a afbd 6f92 59bd
000002d0: f061 efba 0d60 993d 242d f0bd 3d17 f0bd
000002e0: 01cb e9bc 1736 843d 8416 f33d 6c7f 033d
000002f0: ccaa 76bc 1937 143d 82fb c13c 8beb 3a3d
00000300: 8ad7 013d 9cbd 8f3c b33e bfbc ec8d 34bd
00000310: 2398 15bd b5f6 a3bd 08be 22bd e14e d03a
00000320: 0172 06bd d5a2 6ebc 4daf c5bd fdf0 0cbd
00000330: 86e5 37bd 25bf 0ebe bdb2 bcbc 0a15 663d
00000340: c414 8b3d 5245 033e 0442 e6bc 6405 88bd
00000350: bbb5 aebc 9f75 26bd 9897 683d 57bb 8f3d
00000360: 02d6 853d d2a8 ad3c 8e76 c0bc e6ee 2e3e
00000370: 55db 83bd c601 393c 02ab 923d 5645 87bd
00000380: e984 853d 2627 1e3d 7542 253e 2b26 4a3d
00000390: bedb c3bc c491 53bd 0ce4 05bd 4916 dbbd
000003a0: ecfa 183c 49cf 603c 99b9 3abe 968c 83be
000003b0: da55 1dbe 441b 19be c133 77bd dd40 17bd
000003c0: 194b 06be 3f07 95be 9d2e a9be 1b84 97be
000003d0: 9092 51be 93e1 e2bd b1e3 efbc af0f 35bb
000003e0: a065 0abd 65cf b9bc 16ea e8bd 6379 cfbd
000003f0: 73ad 9cbd 298b 8fbd ea04 48bc 497c 55bb

linear.bias f4 [20]
-0.038979527 0.084818274 -0.073979795 0.029738776 0.025536252 -0.08769218 -0.027957294 -0.072978824
0.097991206 0.018021928 0.018291239 0.0013114212 0.0054979804 -0.034473427 -0.03303352 -0.013917584
0.0039597093 -0.016594974 0.0009697437 0.029847957
00000000: ffa8 1fbd 34b5 ad3d b882 97bd bc9e f33c
00000010: 6731 d13c f597 b3bd b206 e5bc ec75 95bd
00000020: 9daf c83d b9a2 933c 82d7 953c fee3 ab3a
00000030: 6728 b43b 0234 0dbd 284e 07bd 9406 64bc
00000040: 73c0 813b 2ff2 87bc 6636 7e3a b483 f43c
