res/mnist/epistemic_mdl.pth (torch, 118596 bytes, 6 tensors)

conv1.0.weight f4 [16, 1, 5, 5]
-0.30175492 -0.1773513 0.0068840077 -0.016149811 0.04808241 0.008637566 -0.30177268 -0.31975126
-0.25963327 -0.17624488 0.056848913 0.14887767 0.036073606 0.033648666 -0.11157014 0.13239759
0.08602912 0.029055756 0.19006516 -0.062971584 0.051318225 0.04555666 0.16549072 -0.0041167545
0.1918407 -0.03393194 -0.08919642 0.047930256 0.06839223 0.07057662 0.03681707 0.00636233
-0.09489785 0.08278003 0.04983465 -0.13872413 -0.08020528 -0.07957486 -0.009410026 0.16684408
0.0006438157 -0.041826446 -0.10883453 0.054619104 0.124968305 -0.22028504 -0.03417939 -0.092994355
-0.032009043 0.14009443 0.08104493 -0.048386723 -0.072662264 -0.03622556 0.200935 0.01696005
0.14973968 0.22843343 0.23094799 0.018902728 0.078344375 0.17010145 0.06777578 -0.0788025
0.044884842 -0.37868208 -0.28581986 -0.31542972 -0.240858 0.06014589 -0.028838748 -0.039200466
-0.044163447 -0.017973311 -0.17376262 0.063419454 -0.19344035 -0.05010278 -0.015240429 -0.17524935
0.039468218 0.28333974 0.16541891 0.10567314 0.021840356 0.12540631 0.08652066 0.20185138
-0.0573064 -0.040279772 -0.25687614 -0.14732178 0.14916392 -0.0018541052 -0.012334591 -0.24953984
-0.17184883 -0.0062224315 0.18270975 0.08425026 0.013682184 0.07789438 0.094091475 0.09036804
-0.004174285 0.037937596 -0.07137964 -0.10588672 -0.24050002 -0.19707367 0.09938946 -0.18804611
-0.21835172 -0.12513253 0.24636915 0.016651612 0.08751144 -0.0472606 0.20417202 0.21357979
-0.06803733 0.113856226 0.16166894 0.07922153 -0.21473925 0.22154516 0.11004563 0.15548119
-0.049439255 0.17118955 -0.21750496 0.18149287 0.115839005 0.16831028 0.021977697 -0.32463762
-0.24567184 -0.17971034 -0.057745744 0.049764697 -0.05131854 -0.20903213 -0.11812219 -0.31834215
-0.2959189 0.05857491 0.032729942 -0.057904378 0.13400273 0.03412496 -0.00951409 -0.11142181
-0.03789724 -0.15058388 0.0559846 0.0744667 -0.082157485 -0.018712945 0.10270822 -0.06750853
-0.09226818 0.10529933 -0.009036362 0.27617767 0.28232184 0.15666653 -0.06581984 0.20724207
0.0027887686 -0.049104445 -0.08440652 0.036784604 -0.14615434 -0.4152132 -0.24902776 0.028127313
-0.028143758 -0.110563 -0.26045385 -0.29768088 -0.0446151 0.1795882 0.11603088 0.06517969
-0.3278102 -0.086536095 -0.0037858603 0.29032695 0.18349758 -0.069417424 -0.17848116 -0.20855281
0.091537274 0.17448786 -0.040579177 -0.05880165 -0.19316755 -0.07362635 0.09940466 -0.0037758637
0.05225203 -0.06297093 0.036981247 -0.009335495 0.05533702 0.14187773 -0.14305338 -0.078140505
-0.23225099 0.16879106 -0.016312782 0.12031707 0.053370375 -0.2764047 -0.05138065 0.13699487
-0.04396395 0.19707169 -0.071843565 -0.30392626 0.04142957 0.030232096 0.23796625 0.31122124
0.03038232 -0.13571094 -0.07670033 -0.08959587 0.056530602 0.11769172 0.25286812 0.2440479
0.15176384 -0.01894874 0.15793203 -0.14535426 0.13532771 -0.008256078 0.16596061 0.018429872
-0.3050268 -0.08286515 0.038849954 -0.20326202 -0.28304675 -0.21344961 -0.30627182 -0.3707323
-0.14422978 -0.042973105 -0.22070812 0.014516888 -0.035430167 -0.010053509 0.0491235 -0.09420943
00000000: 9f7f 9abe 949b 35be 3e93 e13b 9c4c 84bc
00000010: 10f2 443d 9484 0d3c f381 9abe 70b6 a3be
00000020: a7ee 84be 8a79 34be 68da 683d 6373 183e
00000030: ebc1 133d 2fd3 093d e37e e4bd 3c93 073e
00000040: 0930 b03d 5606 ee3c 71a0 423e 3ff7 80bd
00000050: 0f33 523d 9f99 3a3d 6676 293e d7e5 86bb
00000060: e371 443e 38fc 0abd 9dac b6bd 8452 443d
00000070: 3a11 8c3d 7a8a 903d 7fcd 163d 187b d03b
00000080: ce59 c2bd 9488 a93d 6b1f 4c3d b30d 0ebe
00000090: aa42 a4bd 25f8 a2bd 822c 1abc 2dd9 2a3e
000000a0: bec5 283a 3552 2bbd a3e4 debd 48b8 5f3d
000000b0: 62ef ff3d 6792 61be b0ff 0bbd d373 bebd
000000c0: ea1b 03bd ea74 0f3e e2fa a53d 2831 46bd
000000d0: f4cf 94bd 4161 14bd e8c1 4d3e ceef 8a3c
000000e0: 5c55 193e 74ea 693e a17d 6c3e e5d9 9a3c
000000f0: 0473 a03d 132f 2e3e 07ce 8a3d 3563 a1bd
00000100: 2bd9 373d 9ee2 c1be fb56 92be 0180 a1be
00000110: 7ba3 76be 895b 763d 3d3f ecbc ab90 20bd
00000120: bbe4 34bd c43c 93bc d4ee 31be 0fe2 813d
00000130: 3a15 46be 9338 4dbd feb2 79bc 9174 33be
00000140: 6da9 213d e811 913e 9363 293e 296b d83d
00000150: 8cea b23c 836a 003e be31 b13d 21b2 4e3e
00000160: 1eba 6abd 67fc 24bd 4585 83be 85db 16be
00000170: 6dbe 183e 7205 f3ba 0617 4abc 5f87 7fbe
00000180: 24f9 2fbe 8ae5 cbbb 4418 3b3e 668b ac3d
00000190: 3d2b 603c 1787 9f3d 08b3 c03d e112 b93d
000001a0: 71c8 88bb 7464 1b3d 7d2f 92bd 23db d8bd
000001b0: a345 76be aecd 49be b48c cb3d 298f 40be
000001c0: 9897 5fbe be22 00be 3248 7c3e f668 883c
000001d0: 3339 b33d 5594 41bd 7812 513e a9b4 5a3e
000001e0: 2857 8bbd 742d e93d 8b8c 253e e63e a23d
000001f0: 9be4 5bbe bcdc 623e 9a5f e13d 7636 1f3e
00000200: d180 4abd 504c 2f3e 9fb9 5ebe 44d9 393e
00000210: 003d ed3d 8859 2c3e 920a b43c e736 a6be
00000220: 6691 7bbe fd05 38be cd86 6cbd 11d6 4b3d
00000230: 6433 52bd 850c 56be 0cea f1bd befd a2be
00000240: af82 97be 3fec 6f3d d50f 063d 242d 6dbd
00000250: 0338 093e 9dc6 0b3d fce0 1bbc 1e31 e4bd
00000260: 233a 1bbd a932 1abe 1c50 653d ff81 983d
00000270: 2f42 a8bd e44b 99bc b058 d23d ea41 8abd
00000280: 19f7 bcbd 2da7 d73d 400d 14bc 2967 8d3e
00000290: 7d8c 903e 316d 203e 8dcc 86bd 4437 543e
000002a0: c6c3 363b be21 49bd 53dd acbd 74ab 163d
000002b0: 7ca9 15be d396 d4be 2201 7fbe 406b e63c
000002c0: bd8d e6bc db6e e2bd 355a 85be a169 98be
000002d0: 53be 36bd f8e5 373e 99a1 ed3d ee7c 853d
000002e0: bdd6 a7be d639 b1bd 321c 78bb bca5 943e
000002f0: cae6 3b3e b92a 8ebd c4c3 36be de8e 55be
00000300: e577 bb3d f2ac 323e 5a36 26bd 00da 70bd
00000310: b7cd 45be 69c9 96bd ac94 cb3d 7b74 77bb
00000320: 3906 563d e7f6 80bd a679 173d e7f3 18bc
00000330: 12a9 623d 6548 113e 967c 12be 2108 a0bd
00000340: 34d3 6dbe 90d7 2c3e 62a2 85bc cc68 f63d
00000350: e59a 5a3d eb84 8dbe 8474 52bd 6248 0c3e
00000360: 8b13 34bd 29cd 493e b822 93bd 399c 9bbe
00000370: 0eb2 293d 4da9 f73c 6dad 733e 6458 9f3e
00000380: 58e4 f83c cff7 0abe 1015 9dbd 0a7e b7bd
00000390: a28c 673d 5b08 f13d ee77 813e b1e7 793e
000003a0: fb67 1b3e 633a 9bbc efb8 213e bfd7 14be
000003b0: 5993 0a3e 8044 07bc 94f1 293e 3efa 963c
000003c0: 792c 9cbe 34b5 a9bd 2121 1f3d eb23 50be
000003d0: 81eb 90be 8992 5abe a9cf 9cbe a0d0 bdbe
000003e0: f9b0 13be 9104 30bd 4f01 62be 3ed8 6d3c
000003f0: 391f 11bd 79b7 24bc b935 493d e0f0 c0bd

conv1.0.bias f4 [16]
-0.29216528 -0.41480565 -0.24127185 -0.6714115 -0.54703605 -0.3353246 -0.22276923 -0.3604679
-0.425712 -0.40629658 -0.24110837 -0.49043664 -0.040557545 -0.22411898 -0.42805827 -0.49469534
00000000: b096 95be 6861 d4be f80f 77be a0e1 2bbf
00000010: 8e0a 0cbf aaaf abbe 9e1d 64be 408f b8be
00000020: ecf6 d9be 1b06 d0be 1de5 76be 831a fbbe
00000030: ab1f 26bd 727f 65be 742a dbbe b548 fdbe

conv2.0.weight f4 [32, 16, 5, 5]
0.09598906 0.01974381 0.018159755 -0.031249372 -0.0047886483 0.08720536 -0.060726523 0.002461624
-0.07288514 -0.057557184 -0.2843503 -0.12397224 -0.04030413 -0.101105295 -0.11795977 0.030657709
0.015781986 0.084478185 0.04307499 0.18259278 0.090761326 -0.0029997288 -0.009406443 0.050854184
0.041070733 0.047205348 0.022227487 0.0062807226 0.00883708 -0.007027447 -0.115911216 0.014102875
-0.01094866 -0.045041755 -0.03786277 -0.11428721 -0.050151534 -0.06048718 -0.08262568 -0.1116402
-0.14623663 -0.1671038 -0.08020419 -0.074299306 -0.042993557 -0.016200498 -0.06309346 -0.04150766
-0.017827142 -0.028036581 -0.05783815 -0.017140176 -0.017906636 0.0061246026 0.08290119 0.038945295
0.026866302 -0.0010621946 0.028592667 -0.008500654 0.012553314 0.014752339 0.030280648 0.05773373
0.108760335 -0.08453992 -0.049457386 -0.036936596 -0.05899142 -0.24911624 -0.07773663 0.003295253
0.0009044893 0.07536529 0.08374308 0.0040268633 -0.04822329 0.09540865 -0.017221902 -0.12363065
0.07158498 -0.072039805 0.008123892 0.0100853145 -0.021251379 -0.06589607 0.056186724 -0.0155761745
0.007898711 -0.028475866 -0.20128073 -0.2452832 -0.2912616 -0.27585146 -0.17459069 -0.09710617
-0.08866909 -0.014124067 0.025761452 0.052851632 0.044329647 -0.04182307 -0.06588298 0.06339892
0.06197911 -0.07243865 0.021811433 -0.010549016 0.05292687 0.032446355 -0.23160897 -0.23626663
-0.25297397 -0.06038988 -0.021064049 0.06576528 -0.0075004688 0.1002436 0.04188569 0.09685436
0.16148998 0.02869763 0.054015122 -0.003702519 0.027102558 -0.10668199 -0.08310773 -0.08099554
-0.036856152 0.056481507 0.069641456 0.06341968 -0.045242522 -0.046343625 0.028214626 0.064786494
0.1620319 -0.020288978 -0.0057031596 0.038367573 0.09250236 0.050733346 0.06480037 0.022835143
-0.018431507 -0.11034 -0.11195194 -0.06471668 -0.028902419 0.14444935 0.047985565 -0.058945376
0.057571407 0.0040884456 0.052824154 0.0076026227 0.010980295 0.077513255 0.04392636 0.06143842
-0.085618846 0.10910736 0.13429123 0.03556687 -0.096471794 -0.25605586 -0.23167439 -0.2336967
0.0051751207 0.015328066 0.03486439 -0.05181509 -0.00874994 0.02586821 0.03074742 -0.02644649
0.023437837 -0.040479798 -0.00041485988 -0.037398234 0.04889167 0.0040798783 0.041664224 -0.034207575
-0.08793191 -0.032003593 -0.003554916 -0.26068112 -0.24572414 -0.27168217 -0.1593741 -0.10198587
-0.08019806 -0.031083658 0.03725339 -0.06125626 -0.027793903 0.109632775 0.02667954 0.099352084
0.11657443 0.11273568 -0.007974516 -0.045891143 -0.147814 -0.015866531 -0.03291562 -0.062430512
-0.11754796 -0.2975109 -0.03407011 -0.16746299 -0.09179571 -0.07284732 -0.05684481 0.012092501
0.033941682 -0.03142641 0.014838341 0.045378756 0.020488186 0.017678112 0.06625688 0.040177673
0.06227037 -0.09951843 -0.011819805 0.05472931 0.05801095 0.052370306 0.0627603 0.027979987
-0.036934238 0.030784817 0.12939714 0.08080451 0.08493275 0.07092962 0.12690605 0.0010893162
-0.18361723 -0.031506084 -0.09951564 -0.11496053 -0.2855753 -0.08130877 0.039056577 -0.023966527
0.12710774 0.028528266 0.025225136 0.06757787 0.10843933 0.10057286 0.035912387 0.081924126
00000000: ea95 c43d c5bd a13c c4c3 943c affe ffbc
00000010: 18ea 9cbb b998 b23d 60bc 78bd 3353 213b
00000020: ce44 95bd 15c1 6bbd 5d96 91be 28e5 fdbd
00000030: f215 25bd 4b10 cfbd e494 f1bd e025 fb3c
00000040: 3949 813c e602 ad3d 676f 303d 9af9 3a3e
00000050: 13e1 b93d 1997 44bb 7b1d 1abc 7a4c 503d
00000060: c939 283d 655a 413d 6b16 b63c 85ce cd3b
00000070: 66c9 103c 8046 e6bb dc62 edbd bf0f 673c
00000080: 0262 33bc b47d 38bd fe15 1bbd 6a0f eabd
00000090: b26b 4dbd 68c1 77bd a737 a9bd 9ea3 e4bd
000000a0: 0ebf 15be 421d 2bbe 1842 a4bd 3c2a 98bd
000000b0: 031a 30bd e8b6 84bc 2537 81bd f003 2abd
000000c0: 3a0a 92bc f9ac e5bc b2e7 6cbd 8e69 8cbc
000000d0: f0b0 92bc e4b0 c83b 19c8 a93d 1a85 1f3d
000000e0: b816 dc3c 5639 8bba 2b3b ea3c 5446 0bbc
000000f0: 6aac 4d3c cbb3 713c 1f0f f83c 347a 6c3d
00000100: bdbd de3d 4423 adbd d493 4abd d44a 17bd
00000110: fda0 71bd 5418 7fbe 6234 9fbd 2cf5 573b
00000120: 401b 6d3a 1e59 9a3d 7e81 ab3d c7f3 833b
00000130: c985 45bd 9c65 c33d f214 8dbc 1132 fdbd
00000140: 259b 923d 9b89 93bd 131a 053c e03c 253c
00000150: 5f17 aebc 85f4 86bd 0d24 663d 3633 7fbc
00000160: 9869 013c 3846 e9bc 891c 4ebe 852b 7bbe
00000170: 3e20 95be 673c 8dbe e7c7 32be 9adf c6bd
00000180: 2498 b5bd a168 67bc ae09 d33c f47a 583d
00000190: 0193 353d ab4e 2bbd a8ed 86bd 4bd7 813d
000001a0: cfdd 7d3d b75a 94bd e4ad b23c c8d5 2cbc
000001b0: d8c9 583d 78e6 043d e72a 6dbe e1ef 71be
000001c0: ce85 81be 615b 77bd 838e acbc f2af 863d
000001d0: 7ec6 f5bb 844c cd3d 5490 2b3d 945b c63d
000001e0: a15d 253e 4b17 eb3c f63e 5d3d f6a5 72bb
000001f0: 2f06 de3c 167c dabd 6334 aabd fde0 a5bd
00000200: 7af6 16bd 2759 673d 2ea0 8e3d 2de2 813d
00000210: 3950 39bd d0d2 3dbd 5c22 e73c c8ae 843d
00000220: b1eb 253e 1235 a6bc 92e1 babb 5127 1d3d
00000230: e171 bd3d c5cd 4f3d 0eb6 843d c410 bb3c
00000240: acfd 96bc f0f9 e1bd 0f47 e5bd 2e8a 84bd
00000250: c4c4 ecbc 88ea 133e 838c 443d b570 71bd
00000260: ffcf 6b3d 5ef8 853b 245e 583d 6c1f f93b
00000270: b2e6 333c 45bf 9e3d 20ec 333d daa6 7b3d
00000280: ef58 afbd ae73 df3d a483 093e 91ae 113d
00000290: 0193 c5bd c119 83be 0d3c 6dbe 304e 6fbe
000002a0: 0f94 a93b 9222 7b3c f6cd 0e3d 0f3c 54bd
000002b0: e95b 0fbc 91e9 d33c 03e2 fb3c 4fa6 d8bc
000002c0: b500 c03c 25ce 25bd 8d81 d9b9 e42e 19bd
000002d0: a242 483d 80b0 853b 1ba8 2a3d 3e1d 0cbd
000002e0: a515 b4bd 3316 03bd 98f9 68bb ff77 85be
000002f0: 1c9f 7bbe ed19 8bbe f732 23be f8dd d0bd
00000300: e13e a4bd 28a3 febc 0397 183d d8e7 7abd
00000310: 0ab0 e3bc 2687 e03d 0d8f da3c 1b79 cb3d
00000320: 93be ee3d f7e1 e63d 8ba7 02bc 5af8 3bbd
00000330: 8e5c 17be 87fa 81bc 87d2 06bd 23b7 7fbd
00000340: fcbc f0bd 5953 98be 1a8d 0bbd 6b7b 2bbe
00000350: 64ff bbbd fa30 95bd 1ad6 68bd a01f 463c
00000360: 6f06 0b3d fbb8 00bd 831c 733c 13df 393d
00000370: d7d6 a73c b0d1 903c b0b1 873d 5891 243d
00000380: 370f 7f3d 52d0 cbbd dba7 41bc d72b 603d
00000390: e49c 6d3d 3f82 563d 7988 803d 4936 e53c
000003a0: 5b48 17bd 7130 fc3c af80 043e d67c a53d
000003b0: 39f1 ad3d 8c43 913d a9f3 013e 63c7 8e3a
000003c0: 2806 3cbe 860c 01bd dbce cbbd 6d70 ebbd
000003d0: ed36 92be 3685 a6bd caf9 1f3d 7355 c4bc
000003e0: 8828 023e 1cb4 e93c f2a4 ce3c 4466 8a3d
000003f0: 7015 de3d 25f9 cd3d de18 133d d6c7 a73d

conv2.0.bias f4 [32]
-0.14809988 -0.06596113 -0.007415309 -0.057213727 -0.041290868 -0.05538417 -0.05905155 -0.09477941
-0.09361176 -0.13266227 -0.20767863 -0.16594882 0.041424286 -0.11804313 -0.06578472 -0.021045322
-0.009118381 0.0816151 -0.0371301 -0.051531423 0.021734903 -0.13608794 -0.09526924 -0.008745709
-0.068309195 -0.042858187 -0.057023857 -0.16417284 -0.03484347 0.037818078 0.012248251 -0.10363022
00000000: 7fa7 17be a116 87bd 1ffc f2bb f158 6abd
00000010: 9d20 29bd 83da 62bd 0ae0 71bd b51b c2bd
00000020: 86b7 bfbd 9ed8 07be b5a9 54be 7dee 29be
00000030: 83ac 293d 99c0 f1bd 24ba 86bd 3d67 acbc
00000040: 4365 15bc d125 a73d bb15 18bd 9d12 53bd
00000050: 650d b23c a35a 0bbe 851c c3bd 2a4a 0fbc
00000060: b1e5 8bbd 118c 2fbd d991 69bd ed1c 28be
00000070: 07b8 0ebd 21e7 1a3d e3ac 483c 153c d4bd

linear.weight f4 [10, 1568]
-0.036471978 -0.048436668 0.012150714 -0.018679265 0.036798764 0.025822407 -0.0373955 -0.0045332084
0.06649329 0.044594962 0.1290192 -0.012456506 -0.04448963 -0.10828202 -0.012434492 -0.11027354
-0.13236956 -0.10299894 -0.142369 -0.17800225 -0.21866636 -0.21525936 -0.40592575 -0.1850622
0.020059522 0.03414641 -0.2958049 -0.20791082 -0.21860577 -0.29802343 -0.09875625 -0.07186113
-0.1478423 0.03144656 -0.0008595162 -0.010317377 -0.025551632 -0.018183913 0.042195253 0.07241968
0.015859954 -0.0042748176 0.07032459 0.0302233 -0.008248856 0.013228819 -0.0064222193 0.008188207
-0.06057383 -0.02594072 0.012004781 -0.08131354 -0.051433876 -0.0048334524 0.00026899413 0.02641064
-0.035249952 -0.045894362 0.02858774 0.020625193 -0.0011332807 0.06901764 0.061005857 -0.025950357
-0.114100836 0.034833074 0.04148328 -0.014112006 0.05814337 0.07956233 -0.044186674 -0.23240797
0.010167073 -0.037708018 -0.10901867 0.055242453 0.0666895 -0.009861947 -0.023537762 0.032723334
0.0037359064 -0.097642384 -0.060037654 0.010328554 0.051857837 -0.0031808238 0.025283406 0.027601812
0.01925541 -0.06789478 -0.011852263 -0.1400863 0.090073496 -0.014366774 0.049156595 -0.09083681
-0.1347026 -0.13311419 -0.034355648 -0.09753825 -0.066941015 0.011860922 -0.011268594 -0.045988165
-0.08660253 -0.09813908 -0.17139909 -0.08307094 -0.047137477 0.045743827 0.03109443 0.12999088
0.054994263 -0.0567138 0.04029174 -0.05555762 0.08276081 0.04554005 0.09471565 -0.04953313
-0.03083757 0.08773984 0.05695708 0.042609587 0.001733176 0.05707336 0.055484015 0.014264235
0.1468168 0.013722531 0.0034654448 -0.050059684 -0.02713216 0.057659682 0.06732334 0.064231254
-0.09465546 -0.23064707 -0.15516017 -0.018839639 -0.0088751875 0.012175419 -0.029871712 -0.07736289
0.014004765 -0.02104407 -0.04030982 -0.0013546463 -0.114592865 0.009231454 -0.14896972 -0.030187428
-0.061400313 -0.0125861885 -0.005774169 -0.17277126 -0.08407954 0.06841091 0.05711569 -0.034661707
-0.08899709 0.038291942 -0.049194437 0.0864025 0.092039675 0.10077006 -0.045382857 0.016992211
0.058112998 0.029286157 0.079316236 -0.042687878 -0.022362271 -0.01754085 0.04357571 0.06354417
-0.0020361324 0.110536985 -0.0014240295 0.061824314 -0.03845126 0.05753704 0.038174625 0.060263313
0.053116895 -0.0072968495 0.04846674 -0.01667112 -0.021841794 0.016411245 -0.01454122 -0.0013568394
-0.08462061 -0.09196648 -0.07829019 -0.11271816 -0.0654756 -0.09154705 -0.011146116 -0.09102944
-0.02353495 -0.053420085 -0.048328977 -0.08044349 -0.0039773937 0.047467284 -0.053438403 -0.020479083
0.007718125 0.057645667 -0.0036925352 -0.026777666 -0.05655355 0.019734304 -0.039265215 -0.0016676753
-0.06538981 -0.044741817 -0.016978547 -0.13486022 -0.23930092 -0.23280847 -0.11770906 -0.075060196
-0.066870384 0.034116413 -0.017140647 -0.0031759727 -0.032568444 -0.016064042 -0.06924125 0.015246242
0.06413978 0.0116879875 -0.059349578 0.012151213 0.011341475 -0.10964868 -0.032241475 -0.0011397561
-0.18226637 -0.26952606 -0.08985523 -0.05513304 -0.04397647 0.008198647 -0.074986376 -0.026303887
0.015934668 -0.026899552 0.010026746 0.046259593 0.006307093 0.019485822 0.11433571 -0.14463443
00000000: a463 15bd 8765 46bd ca13 473c 4205 99bc
00000010: 4dba 163d 8389 d33c 062c 19bd 4f8b 94bb
00000020: a22d 883d 35a9 363d 9c1d 043e 5f16 4cbc
00000030: c23a 36bd f7c2 ddbd 0aba 4bbc 18d7 e1bd
00000040: e38b 07be 1cf1 d2bd 2ec9 11be 3946 36be
00000050: 13ea 5fbe f36c 5cbe 80d5 cfbe f280 3dbe
00000060: de53 a43c 1bdd 0b3d bd73 97be 93e6 54be
00000070: 31da 5fbe 8796 98be b840 cabd ee2b 93bd
00000080: f963 17be 1cce 003d 2851 61ba 370a 29bc
00000090: a851 d1bc 6ef6 94bc eed4 2c3d c550 943d
000000a0: bcec 813c c513 8cbb 5706 903d db96 f73c
000000b0: 3626 07bc b0bd 583c 7b71 d2bb d427 063c
000000c0: 441c 78bd a281 d4bc b3af 443c b787 a6bd
000000d0: 54ac 52bd f061 9ebb c807 8d39 205b d83c
000000e0: 4162 10bd bafb 3bbd d630 ea3c 2af6 a83c
000000f0: 978a 94ba 1f59 8d3d 47e1 793d d895 d4bc
00000100: b3ad e9bd 20ad 0e3d 5fea 293d 0b36 67bc
00000110: be27 6e3d 93f1 a23d 16fd 34bd 5bfc 6dbe
00000120: cc93 263c b973 1abd 2e45 dfbd e945 623d
00000130: 8194 883d 0194 21bc 44d2 c0bc e708 063d
00000140: 1cd6 743b bbf8 c7bd 0bea 75bd 1839 293c
00000150: e268 543d 5e75 50bb 251f cf3c 321d e23c
00000160: 86bd 9d3c 6b0c 8bbd fe2f 42bc c872 0fbe
00000170: 7478 b83d 9e62 6bbc 6d58 493d a608 babd
00000180: 7aef 09be 164f 08be 82b8 0cbd 22c2 c7bd
00000190: 5f18 89bd 5054 423c e99f 38bc 165e 3cbd
000001a0: ab5c b1bd 24fd c8bd 3e83 2fbe 1921 aabd
000001b0: 3a13 41bd e15d 3b3d bfb9 fe3c 541c 053e
000001c0: aa41 613d bb4c 68bd f408 253d 6390 63bd
000001d0: 807e a93d 3488 3a3d 47fa c13d 40e3 4abd
000001e0: 129f fcbc f2b0 b33d d44b 693d 6487 2e3d
000001f0: bc2b e33a c1c5 693d 3543 633d 8ab4 693c
00000200: 2557 163e 77d4 603c 841c 633b 620b 4dbd
00000210: 4344 debc 8f2c 6c3d d2e0 893d ad8b 833d
00000220: b9da c1bd bf2e 6cbe 4fe2 1ebe 9655 9abc
00000230: 3c69 11bc 697b 473c 85b5 f4bc 6f70 9ebd
00000240: 3e74 653c 9d64 acbc e91b 25bd 638e b1ba
00000250: aaaf eabd 863f 173c 858b 18be a04b f7bc
00000260: e57e 7bbd 4d36 4ebc 3e35 bdbb f3ea 30be
00000270: e531 acbd 051b 8c3d 24f2 693d 6ff9 0dbd
00000280: 1b44 b6bd 03d8 1c3d 1b80 49bd cbf3 b03d
00000290: 4c7f bc3d 8960 ce3d 60e3 39bd 4033 8b3c
000002a0: e507 6e3d 86e9 ef3c 8d70 a23d 7cd9 2ebd
000002b0: 1531 b7bc d4b1 8fbc 727c 323d 7223 823d
000002c0: a270 05bb 3761 e23d 80a6 baba 7e3b 7d3d
000002d0: 127f 1dbd f6ab 6b3d ff5c 1c3d aad6 763d
000002e0: 1a91 593d 691a efbb 0f85 463d df91 88bc
000002f0: 90ed b2bc e070 863c 4c3e 6ebc fad7 b1ba
00000300: 924d adbd ec58 bcbd 9b56 a0bd c7d8 e6bd
00000310: 1218 86bd 057d bbbd 339e 36bc a56d babd
00000320: 5ecc c0bc 05cf 5abd 9bf4 45bd 8ebf a4bd
00000330: cc54 82bb 0e6d 423d 3ae2 5abd c0c3 a7bc
00000340: 53e8 fc3b dd1d 6c3d 76fe 71bb d65c dbbc
00000350: b2a4 67bd d6a9 a13c 90d4 20bd e695 daba
00000360: 18eb 85bd 3243 37bd 9816 8bbc cc18 0abe
00000370: 4d0b 75be 5865 6ebe 7311 f1bd 29b9 99bd
00000380: 57f3 88bd a7bd 0b3d 8b6a 8cbc fb23 50bb
00000390: 7d66 05bd bd98 83bc 5bce 8dbd 60cb 793c
000003a0: b85b 833d f97e 3f3c 8b18 73bd e215 473c
000003b0: 98d1 393c 7d8f e0bd a30f 04bd de63 95ba
000003c0: 09a4 3abe 52ff 89be 0506 b8bd 2fd3 61bd
000003d0: ac20 34bd 9e53 063c 7592 99bd 407b d7bc
000003e0: 6c89 823c 735c dcbc 3947 243c b37a 3d3d
000003f0: bbab ce3b bba0 9f3c d728 ea3d 0c1b 14be

linear.bias f4 [10]
-0.028894106 0.09217256 -0.08468111 0.025861097 0.005086244 -0.049425967 -0.012155252 0.005486085
0.03432181 0.031821627
00000000: 55b3 ecbc f8c4 bc3d 4a6d adbd a7da d33c
00000010: 82aa a63b e272 4abd d226 47bc 9ec4 b33b
00000020: 0795 0c3d 6557 023d
