res/mnist/normal_mdl.pth (torch, 118566 bytes, 6 tensors)

conv1.0.weight f4 [16, 1, 5, 5]
0	0xbd355bf1	-0.044277135
1	0x3e1280f7	0.14307009
2	0xbd2e09e8	-0.042489916
3	0xbdb3a7ad	-0.08772216
4	0xbd371c9c	-0.04470502
5	0x3d4f8db3	0.050672244
6	0x3dc738c2	0.097276226
7	0x3d2a9d96	0.041654192
8	0xbe02dc97	-0.12779461
9	0x3c413990	0.011793509
10	0x3e03a6ad	0.1285655
11	0x3e25c43b	0.16188137
12	0xbe4354af	-0.19075273
13	0xbda16375	-0.07880298
14	0xbd0e3d5b	-0.034726482
15	0x3daedb57	0.085379295
16	0x3e08943a	0.13337794
17	0xbd4f66d9	-0.050635193
18	0xbe293b94	-0.16526634
19	0x3caa34b6	0.020777088
20	0x3d96b37a	0.07358451
21	0x3dc7067f	0.09718036
22	0x3b55f466	0.0032646894
23	0x3d31faa3	0.043451916
24	0x3d13abc4	0.03605248
25	0x3e1c5b0a	0.15269104
26	0x3bace2ac	0.005276045
27	0x3e6fe86c	0.23428506
28	0x3deefad3	0.11668935
29	0x3bbe65f6	0.0058104945
30	0xbdf20cc1	-0.11818839
31	0xbc2de09b	-0.010612632
32	0x3b9d516e	0.004800967
33	0x3e752174	0.23938543
34	0x3c96f232	0.018426035
35	0xbdd5c340	-0.104376316
36	0xbdfb1255	-0.12259356
37	0xbde158ce	-0.11003266
38	0x3dba167c	0.0908632
39	0x3d795e85	0.060881156
40	0xbe3c77aa	-0.18405023
41	0xbe1d1ff3	-0.15344219
42	0xbd2ed432	-0.042682834
43	0x3c1bff4c	0.009521317
44	0x3da7a18a	0.08185108
45	0x3e0dbcb5	0.13841517
46	0xbd422941	-0.047402624
47	0x3c2c6cba	0.010523969
48	0xbdd57928	-0.10423499
49	0x3e2d9b5f	0.169538
50	0xbb2e6b24	-0.0026614154
51	0xbd3453c8	-0.044025213
52	0xbebb331c	-0.3656243
53	0xbdf4767b	-0.11936661
54	0xbe447ae5	-0.19187506
55	0x3da1c626	0.07899122
56	0xbde8d4c4	-0.11368707
57	0xbdb0dc67	-0.086357884
58	0xbccfd3d9	-0.025369572
59	0x3e6cc2c8	0.23121178
60	0x3d6db157	0.058030453
61	0x3ea1cb12	0.31600243
62	0x3e9dc25a	0.3081234
63	0x3e988dc5	0.29795662
64	0xbe13c89e	-0.14431998
65	0xbc88443f	-0.016634105
66	0x3d9d50dd	0.07681439
67	0x3daba1de	0.08380483
68	0xbda0bfb1	-0.07849062
69	0x3d900446	0.07032065
70	0xbe2d8073	-0.1694353
71	0xbe84f297	-0.2596633
72	0xbe60cdf8	-0.21953571
73	0xbdb5c835	-0.08876077
74	0xbcece31c	-0.028916888
75	0xbe924c3b	-0.28573784
76	0xbdcb6ab4	-0.099324614
77	0x3d708d71	0.05872864
78	0x3d91d1de	0.07120107
79	0x3c8f9e73	0.01753161
80	0xbd75d2d0	-0.0600155
81	0xbcb67a08	-0.022274986
82	0x3da77f6c	0.08178601
83	0x3d3ab64f	0.04558402
84	0x3e3d967d	0.18514438
85	0x3e9d1007	0.3067629
86	0x3e6858a0	0.22690058
87	0xbe23eb7f	-0.16007803
88	0xbdadb688	-0.08482081
89	0x3e18553c	0.14876264
90	0x3bb9f2cc	0.0056746956
91	0xbdcc24a3	-0.099679254
92	0xbe3ca318	-0.1842159
93	0xbd94093c	-0.07228324
94	0x3c7d0bd9	0.015444719
95	0xbe4a3d5d	-0.1974997
96	0xbde0a1f1	-0.10968388
97	0xbce39324	-0.027780123
98	0x3da44440	0.0802083
99	0x3c109876	0.008825412
100	0x3de4ab53	0.1116549
101	0x3dcf4e18	0.10122317
102	0x3e2532df	0.16132687
103	0xbd7d7896	-0.061882578
104	0x3deb32af	0.114842765
105	0xbcd2b901	-0.025722982
106	0x3e506bf0	0.20353675
107	0x3ddcb046	0.10775809
108	0x3e4a5ed9	0.19762744
109	0x3e0ad09b	0.13556139
110	0xbea17549	-0.31534794
111	0xbdd30136	-0.10302965
112	0xbd2ef75d	-0.042716373
113	0x3d63b09c	0.05558835
114	0xbe02a048	-0.12756455
115	0xbdf786c3	-0.12086251
116	0xbd70c49d	-0.058781255
117	0xbe3d18d9	-0.1846651
118	0xbe61a161	-0.22034217
119	0xbe48b181	-0.19598962
120	0xbdbc841c	-0.09204885
121	0xbe1de1d3	-0.15418176
122	0xbdaa876f	-0.08326613
123	0xbdb36054	-0.087586075
124	0xbda2fd57	-0.07958477
125	0xbd765dbe	-0.060147993
126	0xbd538ed8	-0.0516499
127	0xbc863c14	-0.01638607
128	0xbe0e77f7	-0.1391295
129	0xbe1dd9a7	-0.15415059
130	0xbe1ac89d	-0.1511559
131	0xbe08032e	-0.13282463
132	0xbe6cedb6	-0.23137555
133	0xbcd1d3a7	-0.025613619
134	0xbe1fe407	-0.1561433
135	0xbe1f86e8	-0.15578806
136	0xbd158675	-0.03650518
137	0x3d84258f	0.06452476
138	0xbdaf5d24	-0.08562687
139	0x3d6638be	0.056206457
140	0x3e0608b9	0.13089265
141	0xbda1136d	-0.07865033
142	0xbc9d1744	-0.019176133
143	0x3d0120ea	0.03152553
144	0x3ac1365c	0.0014740932
145	0x3d1ccb28	0.038279682
146	0x3d5ab45a	0.053394653
147	0x3d7efea4	0.062254563
148	0x3ca2b7cc	0.019863032
149	0x3e94425a	0.28956872
150	0x3d86bedb	0.065793715
151	0x3dd8c2a2	0.10583998
152	0x3d8ea27d	0.06964586
153	0xbe3a676b	-0.18203513
154	0x3dfd7dfc	0.12377545
155	0x3e0a0ff9	0.13482656
156	0x3e1f0f10	0.1553309
157	0x3d8d0433	0.068855666
158	0x3e8ca62a	0.27470523
159	0xbe0a3d51	-0.13499953
160	0xbca364c1	-0.019945504
161	0x3da063d3	0.0783154
162	0x3cf2c0a5	0.029632876
163	0xbdab34f0	-0.083597064
164	0x3e3627d4	0.1778863
165	0xbd74e298	-0.05978641
166	0xbd0d3175	-0.034470994
167	0x3dc33e69	0.09533388
168	0xbdcb8b89	-0.099387236
169	0x3d4f4a0e	0.050607733
170	0xbe506587	-0.2035123
171	0xbe2e673f	-0.17031573
172	0xbe60dd36	-0.21959385
173	0x3cb2ed28	0.0218416
174	0xbe90b490	-0.28262758
175	0x3cb30b34	0.021855928
176	0xbe0bcc4c	-0.13652152
177	0xbd5dc8fe	-0.05414676
178	0x3e2ab06b	0.1666886
179	0x3d868833	0.06568947
180	0xbe29633f	-0.16541766
181	0xbdcb8b84	-0.0993872
182	0x3d45b26e	0.048265867
183	0x3dc02358	0.09381741
184	0x3da6d89f	0.08146786
185	0xbeb22dfe	-0.34800714
186	0x3de1c76f	0.11024367
187	0x3e30742b	0.17231815
188	0x3e0195ac	0.12654752
189	0x3d1332c2	0.03593708
190	0xbce66a51	-0.028126867
191	0x3e4b61f5	0.19861586
192	0x3d815218	0.06314486
193	0xbc986672	-0.018603537
194	0xbe31e635	-0.17372973
195	0x3dcbba36	0.09947626
196	0xbc9fc235	-0.019501785
197	0xbdc47ea2	-0.09594466
198	0x39ec59a1	0.00045080206
199	0xbd9c66a2	-0.07636763
200	0x3e12317e	0.14276692
201	0xbbc18128	-0.005905289
202	0xbe5e6b21	-0.21720554
203	0xbd9b91bf	-0.07596158
204	0x3d6418e0	0.055687785
205	0xbcba9428	-0.022775725
206	0xbc49cc6d	-0.012316805
207	0x3e67f862	0.22653344
208	0xbe4c55b5	-0.1995457
209	0xbeaef2c1	-0.34169582
210	0x3dfffdab	0.12499555
211	0xbdac2302	-0.08405115
212	0x3dd07529	0.101785965
213	0x3c95ff77	0.018310292
214	0xbe150760	-0.14553595
215	0x3d239455	0.039936382
216	0xbd985c46	-0.07439475
217	0xbd07bdcf	-0.03314
218	0x3db6ad1c	0.08919737
219	0x3e971bab	0.29513296
220	0x3dede99b	0.11616822
221	0x3b52d65b	0.0032171223
222	0x3e29b556	0.1657308
223	0x3de63032	0.11239661
224	0x3d96127e	0.07327746
225	0xbd8889a7	-0.0666688
226	0xbe26971d	-0.16268583
227	0xbc59ab22	-0.01328543
228	0xbe0ca308	-0.13734066
229	0x3d7129b9	0.05887768
230	0x3da9bece	0.08288346
231	0x3d1d92d3	0.0384701
232	0x3d46b69e	0.048514
233	0x3dbf4412	0.09339155
234	0x3e947ad4	0.2899996
235	0x3d894a33	0.067036055
236	0x3e71ce66	0.23613891
237	0x3e808160	0.25098705
238	0x3e155ecd	0.14586945
239	0xbdf7249e	-0.12067531
240	0xbdd53949	-0.10411317
241	0xbd239a9f	-0.03994238
242	0x3b671f32	0.0035266397
243	0xbd6a20fe	-0.05716037
244	0xbe72cb80	-0.23710442
245	0xbe888636	-0.26664895
246	0xbe8041a3	-0.25050077
247	0xbea388ff	-0.31940457
248	0xbe83b8f1	-0.25727037
249	0xbce3914b	-0.027779242
250	0xbdc64187	-0.09680467
251	0x3d860823	0.06544521
252	0xbd504ba1	-0.050853375
253	0xbd9e0737	-0.0771622
254	0xbe50b6a6	-0.20382175
255	0x3e02c656	0.12770972

conv1.0.bias f4 [16]
0	0xbea9eae2	-0.33187014
1	0xbf0b4164	-0.54396653
2	0xbead7079	-0.33874872
3	0xbe8a526a	-0.27016002
4	0xbeb6fff5	-0.35742155
5	0xbe93654f	-0.2878823
6	0xbe409b1a	-0.18809167
7	0xbecca4f2	-0.39969593
8	0xbeebae89	-0.46031597
9	0xbeaa5925	-0.33271137
10	0xbe8e8837	-0.278383
11	0xbec8c93e	-0.39216036
12	0xbe910881	-0.283268
13	0xbef07ffa	-0.46972638
14	0xbe91dfaf	-0.2849097
15	0xbeb50aba	-0.35359746

conv2.0.weight f4 [32, 16, 5, 5]
0	0x3bab7e86	0.0052335886
1	0x3d8603ea	0.06543715
2	0xbd1d99a8	-0.038476616
3	0xbd05cd8f	-0.03266674
4	0x3e18e1ca	0.14929882
5	0x3d32822a	0.043581165
6	0xbc259cc9	-0.010108181
7	0xbc086eb9	-0.00832718
8	0xbcc7131d	-0.024301106
9	0x3cb48c74	0.02203963
10	0xbc99ab8b	-0.018758556
11	0xbd8e8bac	-0.06960234
12	0xbe169b2d	-0.14707632
13	0xbe12bb9b	-0.14329378
14	0xbcbf945d	-0.023386175
15	0xbd898270	-0.06714332
16	0xbcf03bb0	-0.029325336
17	0x3d4100bd	0.047119845
18	0xbd03d553	-0.032185864
19	0x3cfb53ba	0.030679572
20	0xbd9030ac	-0.070405334
21	0x3c8d49c0	0.01724708
22	0x3d10a1b6	0.03531047
23	0x3e1c2ed8	0.15252244
24	0x3d39061b	0.04517184
25	0xbe112057	-0.14172493
26	0xbd8369a6	-0.06416635
27	0x3d3da37a	0.04629848
28	0x3dd10235	0.10205499
29	0xbd25643d	-0.040378798
30	0xbe5435ce	-0.2072365
31	0xbd82a169	-0.06378443
32	0x3cf87eba	0.030333865
33	0xbb471563	-0.0030377738
34	0xbdb46d73	-0.08809938
35	0xbd957569	-0.07297785
36	0xbdabf85d	-0.08396981
37	0x3d350a49	0.04419926
38	0xbc35a9f9	-0.011087888
39	0xbc6cc237	-0.014450601
40	0xbe573d95	-0.21019585
41	0xbe1e109d	-0.15436025
42	0xbd72acac	-0.059246704
43	0x3d93a895	0.07209889
44	0xbd3b1596	-0.045674883
45	0xbdcdc8fe	-0.10048102
46	0xbcd4bed9	-0.02596991
47	0xbe177659	-0.1479124
48	0xbdf0f3af	-0.11765229
49	0xbe0e2e62	-0.13884881
50	0xbd56b69b	-0.05242024
51	0x3d91db85	0.07121948
52	0xbce482d3	-0.027894413
53	0xbd86cac1	-0.06581641
54	0xbcf04a35	-0.02933226
55	0xbc4773de	-0.012173621
56	0xbd875920	-0.06608796
57	0x3d03a03a	0.032135226
58	0xbbccd2ca	-0.006250714
59	0x3d06186c	0.032738134
60	0xbd03e110	-0.03219706
61	0xbd6741da	-0.056459285
62	0xbe6bc2df	-0.23023556
63	0x3cc5a605	0.024127016
64	0xbd1dc6fd	-0.03851985
65	0xbd6db28d	-0.058031607
66	0xbe168b96	-0.14701685
67	0xbe5a1509	-0.21297087
68	0xbe643b87	-0.22288333
69	0xbe1d7854	-0.15377933
70	0x3d3c55f0	0.045980394
71	0x3bcad8e8	0.006190408
72	0x3dc13ebf	0.09435796
73	0xbca80c90	-0.020513803
74	0x3cf1f0f5	0.029533843
75	0x3c995b07	0.018720163
76	0x3c37b679	0.011212938
77	0x3cadac28	0.021200255
78	0x3c99a5e2	0.018755857
79	0xbd035f9c	-0.032073602
80	0x3e614990	0.22000718
81	0xbc98a115	-0.018631497
82	0x3d14191c	0.03615676
83	0x3cd798c8	0.026317969
84	0xbb075ad0	-0.0020653494
85	0xbd5fc5b0	-0.05463189
86	0xbbd6de31	-0.006557249
87	0xbb8e6348	-0.0043453313
88	0x3dc38fa9	0.095488854
89	0xbda15c5d	-0.07878945
90	0xbe064b93	-0.13114767
91	0xbdecda95	-0.11565129
92	0xbd33b0d6	-0.043869816
93	0xbdaf5b0a	-0.08562286
94	0xbe39a597	-0.18129574
95	0x3cb2273f	0.02174723
96	0x3dc057f1	0.093917735
97	0xbdaa36c2	-0.083112255
98	0xbddcbcef	-0.10778224
99	0xbdca6261	-0.098820455
100	0xbc1673ca	-0.00918288
101	0x3b9a55a0	0.0047099143
102	0x3bf8b35c	0.0075897407
103	0xbc36dced	-0.011161071
104	0xbe0a02e2	-0.13477662
105	0x3d04a2f1	0.032381956
106	0xbc2d8c35	-0.01059251
107	0xbd9202c3	-0.07129433
108	0xbc867ead	-0.016417826
109	0xbce2b04d	-0.027671957
110	0xbdca5d54	-0.09881082
111	0x3b94bc1b	0.0045390255
112	0x3cb1c241	0.021699073
113	0x3c37aed6	0.011211118
114	0xbd788d3f	-0.060681578
115	0x3d9210cb	0.07132109
116	0xbd3f4746	-0.04669883
117	0xbbd4c827	-0.0064935866
118	0x3dad2fc8	0.08456379
119	0x3d94810b	0.072511755
120	0xbe3c0d36	-0.18364415
121	0xbcb662b5	-0.022263864
122	0xbdd5fa2f	-0.10448109
123	0xbe3f16de	-0.18661067
124	0xbe08818e	-0.13330671
125	0xbc648d4e	-0.013949705
126	0xbbc24222	-0.005928294
127	0xbcb92874	-0.022602297
128	0xbc0f5139	-0.008747392
129	0xbb63e3da	-0.0034773261
130	0xbd80fcec	-0.06298241
131	0xbda9a40c	-0.082832426
132	0xbcf330a7	-0.029686285
133	0x399a92a7	0.00029482433
134	0xbe24b787	-0.16085635
135	0xbd8c1058	-0.06839055
136	0x3caf8331	0.021424862
137	0xbdb1c8a3	-0.086808465
138	0xbdaa5ebd	-0.08318851
139	0xbdc4b3ff	-0.09604644
140	0x3d82b5b8	0.06382316
141	0x3db56f34	0.08859101
142	0x3d068e38	0.032850474
143	0xbcaaf409	-0.020868318
144	0xbd9329d9	-0.07185716
145	0x3e45ee9d	0.19329305
146	0x3d9148a8	0.07093936
147	0x3bdce722	0.0067414204
148	0x3be53865	0.006995248
149	0x3d941304	0.072301894
150	0xbd565606	-0.052328132
151	0xbc16f837	-0.0092144525
152	0x3c9f9bd5	0.019483486
153	0xbd0b3d25	-0.03399386
154	0xb7939ea0	-1.7597631e-05
155	0xbb777f6e	-0.0037765163
156	0x3d252912	0.04032237
157	0xbd0de19a	-0.03463898
158	0xbdbf0519	-0.09327144
159	0x3cb2661f	0.02177721
160	0x3d3add9d	0.045621503
161	0x3d88eff8	0.066863954
162	0xbca9744d	-0.02068534
163	0x3d96be88	0.0736056
164	0x3db12956	0.08650462
165	0xbceb399a	-0.02871399
166	0xbdc0e38c	-0.09418401
167	0xbe1bacf4	-0.15202695
168	0xbd28e121	-0.041230325
169	0xbd1eb37a	-0.03874538
170	0xbdeb2b92	-0.1148292
171	0xbc8e5aed	-0.017377341
172	0x3c41fd8f	0.011840238
173	0x3d95baf6	0.073110506
174	0xbd912bff	-0.0708847
175	0x3e22cf1c	0.15899318
176	0xbc67c830	-0.0141468495
177	0xbd787bb7	-0.06066486
178	0xbbc25ece	-0.0059317118
179	0x3ceb32fd	0.028710837
180	0x3cf17b05	0.029477606
181	0xbd38ba61	-0.04509962
182	0x3d34cb53	0.044139218
183	0x3d8e03cc	0.06934318
184	0xbc57fe1d	-0.013183144
185	0xbdbe7498	-0.09299582
186	0xbd2fd521	-0.042927865
187	0x3bd23e43	0.0064161136
188	0x3d3a90f0	0.04554838
189	0xbc85d8bf	-0.016338704
190	0xbe1c9dfd	-0.15294643
191	0xbdc8b0dc	-0.09799358
192	0xbd8a74f5	-0.06760589
193	0xbc145a0b	-0.009054671
194	0xbe0ebbe0	-0.13938856
195	0x3da79dc3	0.081843875
196	0x3da3abc8	0.07991749
197	0xbd08b98f	-0.033380087
198	0xbdcad6eb	-0.099042736
199	0xbe0348ec	-0.12820786
200	0x3cafd906	0.02146579
201	0xbc493d11	-0.012282626
202	0xbd3d6de4	-0.046247378
203	0x3aae5ea5	0.0013303353
204	0xbbb8f978	-0.0056449734
205	0xbd22c4c5	-0.039738435
206	0xbe0b5621	-0.13607074
207	0xbe22e7a4	-0.15908676
208	0xbd49a0db	-0.04922567
209	0xbc4df181	-0.012569786
210	0xbdc5cc52	-0.09658112
211	0xbdfc6af1	-0.12325085
212	0xbe92e6aa	-0.28691608
213	0xbea808f1	-0.32819322
214	0xbe57971a	-0.21053734
215	0x3bd5c71e	0.0065239808
216	0x3d19338c	0.037402675
217	0x3d0a8221	0.033815507
218	0xbd215817	-0.03939065
219	0xbcdf38ef	-0.027248828
220	0x3d85b9b5	0.065295614
221	0x3d5a370a	0.053275146
222	0x3d1d8dda	0.03846536
223	0x3dbf646e	0.09345327
224	0x3bccf54f	0.006254829
225	0x3da1a6d3	0.07893147
226	0x3dae1a39	0.08501095
227	0x3d1189f7	0.035531964
228	0xbd8c2447	-0.06842857
229	0xbe301998	-0.17197263
230	0xbd0565dd	-0.032567848
231	0xbe26cd61	-0.16289283
232	0xbc09b507	-0.008404977
233	0xbd62a296	-0.055330835
234	0x3d4be896	0.049782358
235	0x3db33db0	0.08752
236	0xbd5f050d	-0.054448176
237	0x3cf020a9	0.029312449
238	0x3ddf27b0	0.10896242
239	0x3e0681b4	0.13135415
240	0x3bc07d51	0.005874314
241	0xbd1e6078	-0.03866622
242	0x3cb2668a	0.02177741
243	0xbd41304e	-0.047165208
244	0xbe0b14cc	-0.13582152
245	0x3d3904ae	0.04517048
246	0x3d00e1d4	0.031465366
247	0x3c4bdc3e	0.012442647
248	0xbd55b419	-0.052173708
249	0xbddf7a46	-0.10911994
250	0x3b2aaf9f	0.002604462
251	0xbde437ab	-0.1114343
252	0xbbdd0cdb	-0.0067459173
253	0xbb7a8320	-0.003822513
254	0x3b0e0583	0.0021670766
255	0xbbf6b8d1	-0.007529356

conv2.0.bias f4 [32]
0	0xbdc5bb71	-0.09654892
1	0x3c6c9dd2	0.014441924
2	0xbd7b41ec	-0.061342165
3	0x3cc4315f	0.023949323
4	0xbbe5dcd0	-0.0070148483
5	0xbc05ac95	-0.008158823
6	0xbdefc111	-0.11706746
7	0xbdcb4458	-0.09925145
8	0xbd0c395b	-0.034234386
9	0xbd345e62	-0.044035323
10	0xbdb4bc38	-0.088249624
11	0xbdc8dd98	-0.09807891
12	0xbbbcae30	-0.0057580695
13	0xbc19a057	-0.009376607
14	0x3cbc8b39	0.023015605
15	0xbcf8c1b1	-0.030365797
16	0xbdb48d29	-0.08815987
17	0xbdab96d4	-0.083783776
18	0xbd9dbe18	-0.07702273
19	0xbe1fc32d	-0.15601797
20	0xbd266ff8	-0.040634125
21	0xbdc6403c	-0.096802205
22	0x3cb51bf3	0.022108054
23	0xbdcd8958	-0.10035962
24	0xbd40fa52	-0.047113724
25	0xbdeabb44	-0.11461499
26	0xbe0bd769	-0.13656391
27	0xbcec8726	-0.028873038
28	0xbcf03bc5	-0.029325375
29	0xbdf3540d	-0.11881266
30	0x3b9772b0	0.004621826
31	0x3cdd07f1	0.026981326

linear.weight f4 [10, 1568]
0	0x3cab3375	0.02089856
1	0x3c2ffe28	0.010741748
2	0x3d3e3fe4	0.04644765
3	0x3c5b016d	0.013367039
4	0xbccc98e1	-0.024975242
5	0xbcccc1e0	-0.02499479
6	0x3d25d905	0.04049017
7	0x3d96a4ff	0.07355689
8	0x3da40ee1	0.080106504
9	0x3d2caef5	0.04215904
10	0x3da2cb4e	0.079489335
11	0x3c1f4c90	0.009722844
12	0xbd753f5e	-0.059874885
13	0xbdd3aa72	-0.10335244
14	0xbdae90de	-0.08523725
15	0xbdc9607d	-0.09832857
16	0xbd181d38	-0.03713724
17	0xbd3414ee	-0.043965273
18	0xbcf751e3	-0.030190414
19	0xbe80af69	-0.25133827
20	0xbe872fb7	-0.2640359
21	0xbdfd2d5e	-0.12362169
22	0xbdc440e4	-0.095826894
23	0xbdad436c	-0.08460125
24	0x3cf5fa61	0.030026617
25	0x3d9875a0	0.0744431
26	0xbe456fb5	-0.19280894
27	0xbdd731a0	-0.10507512
28	0xbd92ca47	-0.071674876
29	0xbcd63496	-0.026148122
30	0x3ba64543	0.0050741746
31	0xbd8880c4	-0.06665185
32	0x3c905835	0.017620185
33	0x3dff8a38	0.12477535
34	0x3d6c8c77	0.057751145
35	0x3d09dec2	0.033659704
36	0x3cfdfdc1	0.031004788
37	0x3c2dd433	0.010609674
38	0xbdc7ae4d	-0.09750042
39	0x3dd34b18	0.10317057
40	0x3d971aab	0.073781334
41	0x3d06dda5	0.03292622
42	0x3cfcb16b	0.030846318
43	0x3c9665b3	0.01835904
44	0xbd1ea430	-0.0387308
45	0xbe0cb247	-0.13739882
46	0xbd2c785c	-0.04210697
47	0xbd4ca156	-0.04995855
48	0xbcbbe90b	-0.022938272
49	0xbb73dbd8	-0.0037209895
50	0xbdaa78b3	-0.08323803
51	0x3ba4d5a9	0.005030353
52	0xbd8f337b	-0.06992241
53	0xbd237e4b	-0.039915364
54	0xbbcaa088	-0.0061836876
55	0xbcfd3c68	-0.030912593
56	0xbc368bba	-0.011141712
57	0x3a5d6733	0.0008445859
58	0xbca4a3b8	-0.020097598
59	0xbdcfc826	-0.10145597
60	0x3cef6e76	0.029227477
61	0x3d451306	0.048113845
62	0xbccda603	-0.025103575
63	0x3de522ff	0.111883156
64	0x3c716507	0.014733559
65	0x3c9b50a8	0.018959358
66	0xbdbbef50	-0.091765046
67	0xbb035701	-0.0020040872
68	0x3d8d71e5	0.06906489
69	0x3d2100ef	0.03930753
70	0x3d51862d	0.05115335
71	0x3d219dae	0.039457016
72	0x3d37bbb6	0.04485675
73	0xbe1a1060	-0.15045309
74	0x3be1d174	0.006891424
75	0x3d6d6d80	0.057965755
76	0x3cb51547	0.022104872
77	0x3d51d2ba	0.051226355
78	0x3d6aad42	0.057294138
79	0x3d3e1923	0.04641069
80	0xbdacb7ad	-0.08433471
81	0xbdde8dee	-0.10866915
82	0xbdd0e819	-0.10200519
83	0xbe111dea	-0.14171568
84	0xbdf12a8e	-0.11775695
85	0x3d200fae	0.039077453
86	0x3d053b96	0.03252753
87	0x3c0043b2	0.00782864
88	0xbd698e2e	-0.05702036
89	0xbdbfb887	-0.09361368
90	0xbd3a3413	-0.045459818
91	0x3c3d5745	0.011556451
92	0x3d7f7ebc	0.062376723
93	0xbb9692bd	-0.0045951293
94	0xbd3fc9d6	-0.046823345
95	0xbd1842c5	-0.03717305
96	0xbcc4354f	-0.0239512
97	0xbe1ce322	-0.1532102
98	0xbc49e88d	-0.012323511
99	0xbd88a15f	-0.06671404
100	0xbdaa3630	-0.08311117
101	0x3cc00833	0.02344141
102	0x3c8c77ce	0.017146971
103	0xba92f43b	-0.0011211702
104	0x3d621f6f	0.05520576
105	0xbd9eaa6c	-0.07747349
106	0xbdce39c3	-0.10069611
107	0xbd070815	-0.032966692
108	0x3ccebbec	0.025236093
109	0x3d8173dc	0.063209265
110	0x3d0e4ae3	0.034739386
111	0xbcc2d5ae	-0.023783531
112	0xbd96277b	-0.07331749
113	0xbc2991b6	-0.010349682
114	0xbcaea2cc	-0.021317862
115	0x3d2909ab	0.041268986
116	0xbc53b9b5	-0.012922694
117	0xbd4923db	-0.04910646
118	0x3d8c7390	0.06857979
119	0xbc187c77	-0.0093070185
120	0x3d03f648	0.032217294
121	0x3befdb35	0.0073198327
122	0x3db67269	0.08908541
123	0x3df608dd	0.12013409
124	0x3c93d643	0.018046504
125	0x3d8b26d0	0.06794512
126	0x3d2c6537	0.042088713
127	0x3b5bea4a	0.0033556395
128	0x3dcfdec3	0.1014991
129	0x3dfda3ca	0.12384756
130	0x3db45bc5	0.08806566
131	0x3d0b0bbb	0.033946734
132	0x3c9588c6	0.018253695
133	0x3db96baa	0.090537384
134	0x3d741d8f	0.0595985
135	0xbdfdb99f	-0.1238892
136	0xbdefff7a	-0.1171865
137	0x3e0138bf	0.12619303
138	0x3c7f37e8	0.015577294
139	0x3cda8b3d	0.026677722
140	0xbd8efe14	-0.06982055
141	0xbe00960c	-0.12557238
142	0xbe4758bb	-0.19467442
143	0xbe937b13	-0.28804836
144	0xbd53dc5b	-0.05172382
145	0xbca2a678	-0.01985477
146	0xbe05444a	-0.13014331
147	0xbd43c2cc	-0.047793195
148	0xbdbd7fc7	-0.09252887
149	0xbd849eab	-0.06475576
150	0xbda86ad5	-0.082235016
151	0xbdcc87dd	-0.09986851
152	0xbba69445	-0.005083593
153	0x3d45d95b	0.04830299
154	0x3d3fc486	0.04681828
155	0x3cf00708	0.029300228
156	0xbd8cf796	-0.06883161
157	0x3d56d0d9	0.052445266
158	0xbd66dd35	-0.056363303
159	0xbca6eac2	-0.020375613
160	0x3c2179e3	0.00985572
161	0x3d8fe89f	0.07026791
162	0x3ca095be	0.019602653
163	0xbb8d989f	-0.0043211724
164	0xbd8990f0	-0.06717098
165	0x3d906775	0.07050983
166	0x3d426dff	0.04746818
167	0x3d89a105	0.06720165
168	0x3c69e1f8	0.014275067
169	0x3cf12660	0.029437244
170	0x3d612d6e	0.054974966
171	0x3bb4f68b	0.0055225543
172	0x3e1515b2	0.14559057
173	0x3d755adf	0.059901115
174	0x3c786af4	0.015162218
175	0x3d31f620	0.043447614
176	0x3d57bc20	0.052669644
177	0x3d475d94	0.048673227
178	0x3da57bdc	0.08080265
179	0x3d706fcf	0.05870038
180	0xbd81b0bd	-0.06332538
181	0xbc49187f	-0.012273907
182	0x3d612e45	0.054975767
183	0x3d9e749e	0.07737087
184	0x3df35ab6	0.11882536
185	0xbe348e24	-0.17632347
186	0xbdfe9aa6	-0.124318406
187	0xbe29ca38	-0.16581047
188	0xbd6be694	-0.057592943
189	0xbca8fc6a	-0.020628173
190	0xbd98d82f	-0.07463109
191	0xbe14b1c2	-0.14520934
192	0xbe5edad9	-0.21763171
193	0xbe241006	-0.16021737
194	0xbdeadbc1	-0.11467696
195	0x3bb8180a	0.0056181
196	0x3c3bb933	0.011457729
197	0x3b809285	0.0039237165
198	0x3d0948fb	0.033516865
199	0x3cceab80	0.025228262
200	0x3c5fd456	0.013661465
201	0xbb6c360d	-0.003604296
202	0xbd75b06b	-0.0599827
203	0xb98f5573	-0.0002733875
204	0xbdb478e2	-0.08812119
205	0xbd01a28d	-0.03164916
206	0xbd796df6	-0.060895883
207	0xbd8bc222	-0.06824137
208	0x3c853ab0	0.016263336
209	0x3cd7d6a9	0.026347475
210	0xbd9b6c51	-0.07589019
211	0xbd81fe75	-0.06347362
212	0x3ca948f1	0.020664664
213	0x3d2e74eb	0.04259197
214	0xbcd689cc	-0.026188754
215	0xbda6b9a0	-0.08140874
216	0xbd2a437e	-0.04156827
217	0xbd2b069a	-0.041754343
218	0x3d3d7650	0.04625541
219	0x3c82077d	0.015872711
220	0xbd9bc621	-0.076061495
221	0xbe442fba	-0.19158831
222	0xbcbc4df3	-0.022986388
223	0xbd6d9d9b	-0.058011632
224	0x3c5ff3ee	0.013668997
225	0xbcd48b79	-0.025945412
226	0xbdb74d26	-0.08950262
227	0xbcddaf86	-0.027061235
228	0x3c33834e	0.010956598
229	0x3d0af462	0.033924468
230	0xbd357dd9	-0.04430947
231	0x3c9a94b7	0.01886974
232	0xbd864ee9	-0.0655802
233	0xbd610c0c	-0.05494313
234	0x3d394904	0.04523565
235	0x3ceb93db	0.028757026
236	0x3ce28bc0	0.027654529
237	0xbd032c49	-0.032024655
238	0x3d0aec60	0.03391683
239	0x3bebc4a4	0.0071950722
240	0xbd858932	-0.065203086
241	0xbdc67c01	-0.096916206
242	0x39eb44c3	0.00044873924
243	0x3d9cb559	0.07651777
244	0xbd1136f9	-0.035452817
245	0xbca445b8	-0.020052776
246	0xbe2ac918	-0.16678274
247	0x3d01787f	0.031609055
248	0xb8f557c0	-0.00011698855
249	0xbd7738d6	-0.060356937
250	0x3d7b5d50	0.061368287
251	0x3e088c25	0.13334711
252	0xbe042a35	-0.12906726
253	0xbcf636b5	-0.030055383
254	0x3c3d19ba	0.011541778
255	0x3d0e92f4	0.034808114

linear.bias f4 [10]
0	0xbce43a8e	-0.027859952
1	0x3d424aa5	0.047434468
2	0xbd82c89b	-0.06385919
3	0x3d84d2d8	0.06485528
4	0x3c19d20f	0.009388461
5	0xbd8c5bfd	-0.06853483
6	0xbcb17e4f	-0.021666674
7	0x3b1eae8f	0.0024212932
8	0x3d4081f5	0.046998937
9	0xbbe4d230	-0.006983064
